src/backend/saved_models/nn_exoplanets0.pth (torch, 22121 bytes, 5 tensors)

layers.0.weight f4 [64, 7]
-0.042517126 0.12769173 -0.31751025 0.3842307 -0.1843059 -0.017055849 -0.24749117 -0.16934174
-0.3252554 -0.32784435 -0.090576425 -0.19678022 0.2854969 -0.0047905496 0.30737126 -0.054348618
0.07599995 0.40722716 -0.29338643 -0.13894524 0.35288844 -0.03032515 -0.098967426 0.030213948
-0.2195282 0.051346943 -0.15610644 0.12753156 -0.08772825 -0.1316997 -0.14130011 0.10216918
0.19832344 -0.35000485 -0.2718073 -0.37883648 0.15905032 0.28839105 -0.38124874 0.024874654
0.029056313 -0.22550577 0.07794383 0.29689857 0.37395436 0.16118361 -0.07741259 -0.22892906
-0.13576455 -0.013110767 -0.028820427 0.27481413 -0.3399196 0.030359019 -0.13357307 0.032797437
0.32181373 -0.0031113226 -0.06459916 -0.12695903 -0.3720117 -0.34099025 0.13044365 -0.2325969
0.21526141 -0.10716681 0.14189209 0.2757753 0.05670734 0.12902278 0.3312755 -0.109762795
0.27574384 -0.38108173 0.3424652 -0.0862166 -0.010922741 0.19632034 0.021657582 0.33560377
-0.1992472 -0.24635528 0.3138939 -0.23666212 0.25382164 0.36842436 0.25775927 -0.14819655
0.0057554855 -0.3383276 -0.19703534 -0.080104634 -0.2495513 0.21864079 0.20976752 -0.11086839
-0.06094145 0.36784798 -0.09986866 0.3063169 0.35991383 -0.18352653 -0.43378973 0.25791317
-0.21940202 0.38885096 -0.24069215 0.06667848 0.09796171 -0.06863349 0.28668323 -0.34248614
-0.15867119 -0.052922353 0.28348684 0.196195 0.23753923 0.2188817 0.34113258 -0.09660997
-0.114938356 -0.05342442 0.16599631 -0.11409165 0.13864072 0.1088609 0.07608143 0.3100904
0.06170123 0.2508696 -0.113931865 -0.3436372 0.23607151 0.20562388 0.3261606 0.1482133
0.016229212 -0.26401767 -0.36945304 0.101913616 0.34992683 -0.028839825 -0.12468047 0.16612937
-0.1779627 0.13639262 -0.30742034 -0.3445185 -0.21803486 -0.06359965 0.16953032 0.19294108
-0.21247615 -0.08040639 0.18581764 -0.08270192 0.0060704243 0.23013921 -0.116254754 0.18640031
0.3083161 0.11912921 -0.066737965 -0.24269526 -0.29182887 -0.0569247 0.12853049 0.20567879
-0.020720817 0.30503365 -0.15058894 0.08143827 -0.19530214 0.0982724 0.32512578 0.10298725
0.015164957 -0.1357137 -0.27073458 -0.2617683 -0.34978038 0.2536055 -0.15444636 -0.05234477
-0.34199196 -0.13621235 0.32751763 0.100381814 -0.07029822 0.14653593 0.26452482 0.30803388
-0.27647984 -0.008675171 -0.4029965 -0.2998369 0.32605144 -0.29865646 -0.18723086 0.14504327
0.37505808 -0.40564066 -0.23683108 -0.14301409 0.2948221 0.2199148 0.2318029 0.23458649
-0.08691642 0.2803464 -0.0087189 0.04518431 -0.10873521 0.17066213 0.17334373 0.008058681
0.3423523 -0.102137685 0.086379305 0.34853292 0.19934098 -0.16591364 -0.19439575 0.06293522
-0.014057915 0.029317776 0.24631278 0.13051072 -0.22416542 -0.35007247 0.37871364 -0.044361
-0.14761278 -0.2770074 0.38176346 0.18021938 -0.2299159 -0.327147 0.39961553 0.17821084
-0.06308049 -0.40937513 0.25418124 -0.22378848 0.19104919 -0.3497284 -0.32323772 -0.36719805
0.4548371 0.3311121 -0.23781012 0.31544548 -0.24168088 -0.33873746 0.17457178 0.32665446
00000000: 7026 2ebd 9fc1 023e b490 a2be e3b9 c43e
00000010: b0ba 3cbe b5b8 8bbc 536e 7dbe ec67 2dbe
00000020: e087 a6be 37db a7be 2280 b9bd c180 49be
00000030: a62c 923e 0bfa 9cbb c45f 9d3e a89c 5ebd
00000040: dda5 9b3d 1480 d03e bf36 96be a947 0ebe
00000050: cbad b43e 736c f8bc 6faf cabd 3e83 f73c
00000060: 00cc 60be 2c51 523d 5eda 1fbe a297 023e
00000070: deaa b3bd 49dc 06be fab0 10be 133e d13d
00000080: 4d15 4b3e d633 b3be 542a 8bbe dbf6 c1be
00000090: 16de 223e fea7 933e 0933 c3be eec5 cb3c
000000a0: 8107 ee3c fcea 66be 04a1 9f3d 1703 983e
000000b0: f276 bf3e 510d 253e 7e8a 9ebd 616c 6abe
000000c0: dd05 0bbe 8bce 56bc d118 ecbc 70b4 8c3e
000000d0: f109 aebe 7ab3 f83c 61c7 08be 9b56 063d
000000e0: c5c4 a43e 55e7 4bbb 904c 84bd 8c01 02be
000000f0: 5178 bebe 4696 aebe 0593 053e e22d 6ebe
00000100: 7d6d 5c3e 467a dbbd 294c 113e 6c32 8d3e
00000110: f545 683d 8c1e 043e f19c a93e 51cb e0bd
00000120: 4c2e 8d3e 251d c3be 9957 af3e 5492 b0bd
00000130: 4cf5 32bc 3308 493e 3e6b b13c 42d4 ab3e
00000140: 7507 4cbe 8f44 7cbe b4b6 a03e 8e57 72be
00000150: e9f4 813e 1ea2 bc3e 06f9 833e d6c0 17be
00000160: 8398 bc3b 4639 adbe a2c3 49be e60d a4bd
00000170: 608a 7fbe 5fe3 5f3e 4ccd 563e f70e e3bd
00000180: be9d 79bd 9256 bc3e f187 ccbd 92d5 9c3e
00000190: a046 b83e 61ee 3bbe b019 debe 320d 843e
000001a0: ecaa 60be 7917 c73e 0178 76be ba8e 883d
000001b0: 26a0 c83d b78f 8cbd 25c8 923e 585a afbe
000001c0: b37a 22be 1cc5 58bd 3025 913e 58e7 483e
000001d0: 7c3d 733e 8622 603e eea8 ae3e 73db c5bd
000001e0: cd64 ebbd 91d3 5abd f0fa 293e e2a8 e9bd
000001f0: d5f7 0d3e 77f2 de3d 95d0 9b3d 2bc4 9e3e
00000200: 6eba 7c3d fb71 803e 1c55 e9bd 37f1 afbe
00000210: bbbc 713e 118f 523e 86fe a63e 3ac5 173e
00000220: 20f3 843c 532d 87be f328 bdbe 16b8 d03d
00000230: 9c29 b33e 7f41 ecbc 7958 ffbd d11d 2a3e
00000240: db3b 36be 82aa 0b3e 3366 9dbe bb64 b0be
00000250: 8844 5fbe 8940 82bd 5b99 2d3e 5992 453e
00000260: 5993 59be 1bac a4bd fb46 3e3e a05f a9bd
00000270: 69ea c63b 9da9 6b3e f916 eebd b9df 3e3e
00000280: 9cdb 9d3e 04fa f33d eaad 88bd 1b85 78be
00000290: 986a 95be e029 69bd 7f9d 033e 769d 523e
000002a0: b4be a9bc 5f2d 9c3e fd33 1abe 1cc9 a63d
000002b0: 49fd 47be 0a43 c93d e376 a63e fbea d23d
000002c0: 7176 783c 88f8 0abe b99d 8abe 7f06 86be
000002d0: 6a16 b3be 95d8 813e 3027 1ebe 7867 56bd
000002e0: 9219 afbe 407b 0bbe 64b0 a73e fb94 cd3d
000002f0: 83f8 8fbd 840d 163e cc6f 873e 9eb6 9d3e
00000300: c48e 8dbe 4e22 0ebc 8f55 cebe 3984 99be
00000310: 37f0 a63e 80e9 98be 72b9 3fbe 3986 143e
00000320: 9d07 c03e 22b0 cfbe d983 72be 4972 12be
00000330: ecf2 963e 5831 613e bd5d 6d3e 7137 703e
00000340: 3c01 b2bd 9089 8f3e b8d9 0ebc 2f13 393d
00000350: 91b0 debd 0ec2 2e3e 0581 313e 8f08 043c
00000360: cd48 af3e 902d d1bd a2e7 b03d e872 b23e
00000370: 0b20 4c3e 44e5 29be ae0f 47be 2ee4 803d
00000380: 2b53 66bc d52b f03c 6b39 7c3e 9aa4 053e
00000390: 9f8b 65be b33c b3be c1e6 c13e e1b3 35bd
000003a0: ce27 17be ead3 8dbe 8076 c33e 6e8b 383e
000003b0: 136f 6bbe d07f a7be 689a cc3e e77c 363e
000003c0: 5830 81bd 9e99 d1be 0b24 823e cf28 65be
000003d0: 66a2 433e 9a0f b3be 6a7f a5be 6201 bcbe
000003e0: 69e0 e83e 8687 a93e 7f84 73be 1282 a13e
000003f0: 317b 77be ff6e adbe f2c2 323e 413f a73e

layers.0.bias f4 [64]
-0.20947006 -0.2409423 0.15835202 0.047319468 0.16884962 0.099059135 -0.010386496 -0.003628147
0.3564553 -0.2544775 0.07637938 0.21062148 0.2046526 -0.17248729 0.30228812 -0.24062356
0.2021794 0.30059016 0.00069950265 0.07567442 -0.3461653 -0.14940272 -0.18134604 -0.32222688
-0.07266298 0.32283518 -0.03366156 0.4505677 -0.30142352 0.15085113 0.3610629 0.3797662
-0.13257174 -0.33124885 -0.049973633 0.25601876 0.0019621751 0.36697352 -0.26910836 -0.22449034
0.16883898 0.1380992 -0.18153912 0.35486314 -0.16017234 -0.2928173 0.113632485 -0.215274
-0.14428711 -0.20261936 0.14324658 0.17360646 0.27672556 -0.21656838 -0.092568435 0.4028275
-0.19369449 -0.0850036 0.030443896 -0.29498124 -0.27147722 0.3454204 0.14550664 0.04344828
00000000: 527f 56be 94b9 76be 0827 223e 0fd2 413d
00000010: eae6 2c3e 84df ca3d 1f2c 2abc 35c6 6dbb
00000020: 4f81 b63e e04a 82be cb6c 9c3d 28ad 573e
00000030: 7490 513e 82a0 30be 82c5 9a3e 0666 76be
00000040: 1e08 4f3e f4e6 993e d45e 373a 31fb 9a3d
00000050: 943c b1be 07fd 18be c7b2 39be ecfa a4be
00000060: 54d0 94bd a74a a53e b4e0 09bd cfb0 e63e
00000070: 2f54 9abe b878 1a3e 3ddd b83e b770 c23e
00000080: e3c0 07be 7399 a9be 27b1 4cbd e414 833e
00000090: d697 003b f4e3 bb3e 92c8 89be cce0 65be
000000a0: 20e4 2c3e e069 0d3e 64e5 39be 9fb0 b53e
000000b0: 3804 24be 26ec 95be 26b8 e83d ca70 5cbe
000000c0: 00c0 13be 737b 4fbe 3baf 123e e4c5 313e
000000d0: f9ae 8d3e 1ac4 5dbe 8594 bdbd 683f ce3e
000000e0: d957 46be 5e16 aebd 7a65 f93c c807 97be
000000f0: 10ff 8abe f1da b03e b1ff 143e d3f6 313d

layers.2.weight f4 [64, 64]
0.04084123 0.08483103 0.055797186 0.09358564 0.06341932 0.109144054 0.07214698 -0.020209938
0.03586856 -0.06796038 -0.10607682 0.14176814 -0.08271716 -0.084518455 -0.08272124 -0.09455368
0.008537689 0.065335445 -0.12117082 0.001939299 -0.09209632 0.022198888 0.0721964 -0.04886384
-0.054386497 0.11269765 -0.09233805 0.015487986 -0.11183896 0.074424274 0.026485508 -0.034770295
0.0731498 0.114574604 0.035302516 -0.096996814 -0.046422254 0.1083877 0.08799122 -0.04138854
0.06532103 -0.085963465 0.017512111 0.097437225 0.011604825 -0.098699555 0.040294424 0.058015548
0.07377605 -0.085177496 -0.03044589 -0.00106948 -0.04639679 -0.031315632 -0.046528894 0.07271535
0.07328811 -0.039187107 0.07013321 -0.0008139266 0.0381375 0.027704004 -0.08408041 -0.011209827
0.0041965693 0.047568474 -0.01148324 -0.05954915 -0.14076352 -0.06697668 0.055996362 0.11023056
-0.11729743 -0.03984945 0.11130007 -0.052757286 0.08238477 0.016658083 -0.10960264 0.02002055
-0.037175395 0.046067704 -0.081567176 0.14430751 -0.060266547 0.08357611 -0.0785858 -0.1030744
0.05563845 0.066219285 0.015846308 -0.13725275 -0.020589923 -0.061029296 0.06786316 0.025418606
0.11678464 0.13269277 -0.017941646 0.11718176 0.12292 0.009390913 -0.11617797 -0.08897264
0.08909347 0.11342558 0.106373854 0.07185002 -0.06252327 -0.102733 -0.07304982 0.018932886
0.03983048 0.10059342 -0.04643031 0.056477383 0.1557862 -0.10560686 -0.059802085 -0.05135801
0.021160183 0.13836129 0.0792927 0.083539404 0.0986831 0.11760207 -0.037121996 -0.065251164
-0.0077731656 -0.005143368 0.012094867 0.102458686 0.10965275 -0.046173003 -0.057526924 0.006889196
0.005318869 0.07712257 0.042573206 0.019908937 0.035529457 0.09404776 0.048591852 -0.012759331
-0.08890487 0.072996534 -0.008897284 -0.09211094 -0.020634985 0.092077434 -0.05690801 -0.012201762
0.04157091 0.075787954 -0.019433962 -0.10613012 -0.051801737 -0.04060356 0.010061497 -0.09420556
0.11133748 0.03341088 -0.09013635 0.06519602 0.006995101 0.11525247 -0.0024319554 -0.0015582172
-0.12196103 -0.10618606 0.00055836304 0.093673185 -0.07671859 0.022107612 -0.09050785 -0.09645679
-0.045727473 -0.08369961 -0.10918452 -0.044371195 -0.018930232 0.06253044 0.0565195 -0.024345826
-0.035138182 -0.025379812 -0.101450585 0.08714321 0.109040335 -0.120858975 -0.11846699 -0.11786117
-0.0300841 0.019910047 -0.13886993 0.08315255 0.060454655 -0.024554072 -0.13279597 0.09620077
0.15753996 0.0075296597 -0.10893261 0.09426015 0.08759152 -0.025588626 0.18398166 -0.115792096
-0.045280404 0.13058788 -0.09824421 -0.060339358 -0.068269804 -0.04589492 0.10410305 0.062766604
-0.11322946 -0.016095176 -0.028168717 0.043148994 -0.08242291 -0.13109082 0.083008796 0.13260189
0.009441804 -0.027747931 -0.17226706 0.011391268 0.01742468 0.010251419 0.09711703 0.010080225
-0.013094253 0.03534486 0.021487437 -0.098414235 0.0138478475 -0.1423477 -0.017299283 -0.06051045
0.067676224 -0.12782651 0.0120417625 -0.09514051 0.015529704 0.029585306 -0.058352787 0.11473254
0.13404019 0.06419329 -0.17118795 -0.055981696 0.12883244 0.0010225123 -0.11222697 -0.00049579795
00000000: 2249 273d e4bb ad3d 978b 643d d4a9 bf3d
00000010: fde1 813d eb86 df3d ccc1 933d 508f a5bc
00000020: e9ea 123d d02e 8bbd ce3e d9bd ab2b 113e
00000030: 9d67 a9bd 0318 adbd c169 a9bd 5ca5 c1bd
00000040: aae1 0b3c 97ce 853d 6828 f8bd 1430 fe3a
00000050: ff9c bcbd 71da b53c b5db 933d 7325 48bd
00000060: 60c4 5ebd 07ce e63d bb1b bdbd 52c1 7d3c
00000070: d30b e5bd c16b 983d 23f8 d83c 4c6b 0ebd
00000080: 90cf 953d 17a6 ea3d 5f99 103d 44a6 c6bd
00000090: 4325 3ebd 5ffa dd3d be34 b43d 0887 29bd
000000a0: 08c7 853d 9d0d b0bd 8f75 8f3c 2b8d c73d
000000b0: 2a22 3e3c fe22 cabd c40b 253d b6a1 6d3d
000000c0: e617 973d 8a71 aebd a969 f9bc cb2d 8cba
000000d0: 8f0a 3ebd d244 00bd 1595 3ebd c9eb 943d
000000e0: 1418 963d a982 20bd 00a2 8f3d b15d 55ba
000000f0: 1136 1c3d 82f3 e23c 5a32 acbd 6ca9 37bc
00000100: 6083 893b 29d7 423d 3324 3cbc cfe9 73bd
00000110: 5024 10be 122b 89bd 715c 653d 8fc0 e13d
00000120: a339 f0bd 2d39 23bd 4bf1 e33d 0618 58bd
00000130: 59b9 a83d 8876 883c 5977 e0bd 2302 a43c
00000140: 3a45 18bd 7db1 3c3d b10c a7bd 59c5 133e
00000150: 0eda 76bd f429 ab3d 98f1 a0bd ac18 d3bd
00000160: 25e5 633d fa9d 873d 1ed0 813c fc8b 0cbe
00000170: 33ac a8bc dbf9 79bd d7fb 8a3d ae3a d03c
00000180: c92c ef3d 9de0 073e 5cfa 92bc fefc ef3d
00000190: 7bbd fb3d 58dc 193c b7ee edbd 4a37 b6bd
000001a0: a376 b63d ac4b e83d 89da d93d 1a26 933d
000001b0: 330c 80bd ae65 d2bd 259b 95bd 2419 9b3c
000001c0: 4925 233d ec03 ce3d b52d 3ebd d454 673d
000001d0: 6b86 1f3e 6948 d8bd 08f3 74bd c75c 52bd
000001e0: 1f58 ad3c 95ae 0d3e 3664 a23d b516 ab3d
000001f0: 5d1a ca3d 5bd9 f03d 3c0d 18bd 67a2 85bd
00000200: 0ab6 febb b389 a8bb 8d29 463c dcd5 d13d
00000210: 9f91 e03d e71f 3dbd 5aa1 6bbd c4be e13b
00000220: e849 ae3b 70f2 9d3d 3e61 2e3d 1118 a33c
00000230: 5687 113d 1d9c c03d 4008 473d 830c 51bc
00000240: c213 b6bd 357f 953d eac5 11bc a9a4 bcbd
00000250: b30a a9bc 1893 bc3d 6018 69bd e6e9 47bc
00000260: 4246 2a3d b736 9b3d f933 9fbc c05a d9bd
00000270: 0f2e 54bd eb4f 26bd fad8 243c d8ee c0bd
00000280: e804 e43d d9d9 083d 6899 b8bd 7e85 853d
00000290: 2937 e53b 7d09 ec3d 7161 1fbb 183d ccba
000002a0: b4c6 f9bd 1478 d9bd 1c5f 123a bad7 bf3d
000002b0: a31e 9dbd 061b b53c 2e5c b9bd 238b c5bd
000002c0: bb4c 3bbd b36a abbd 229c dfbd 92be 35bd
000002d0: 9313 9bbc f60f 803d fe80 673d e670 c7bc
000002e0: 0eed 0fbd 53e9 cfbc 53c5 cfbd 2478 b23d
000002f0: 8a50 df3d e984 f7bd d29e f2bd 3261 f1bd
00000300: ee72 f6bc 651a a33c eb33 0ebe e24b aa3d
00000310: 4d9f 773d 9f25 c9bc abfb 07be e904 c53d
00000320: 2852 213e 5dbb f63b 0f18 dfbd 770b c13d
00000330: 2f63 b33d 3d9f d1bc b065 3c3e 6824 edbd
00000340: f277 39bd d4b8 053e 4334 c9bd 6726 77bd
00000350: 0ad1 8bbd 50fc 3bbd fb33 d53d c78b 803d
00000360: d9e4 e7bd 08da 83bc 15c2 e6bc 00bd 303d
00000370: 58cd a8bd ac3c 06be 8400 aa3d cac8 073e
00000380: ccb1 1a3c a14f e3bc c766 30be 71a2 3a3c
00000390: 34be 8e3c 91f5 273c 4be5 c63d 8727 253c
000003a0: 4789 56bc c6c5 103d 6c06 b03c 678d c9bd
000003b0: 15e2 623c 98c3 11be 3ab7 8dbc ced9 77bd
000003c0: d599 8a3d f4e4 02be d04a 453c 07d9 c2bd
000003d0: 4d70 7e3c e25c f23c 5503 6fbd e5f8 ea3d
000003e0: d541 093e c677 833d e54b 2fbe 104d 65bd
000003f0: a7ec 033e d205 863a 41d7 e5bd 70f8 01ba

layers.2.bias f4 [64]
0.07574247 0.097395755 0.007277947 0.07352923 -0.0011560472 0.09415705 -0.00794054 -0.12190658
-0.09114507 -0.05809106 0.02829754 0.108681396 0.05840193 0.050005678 0.02827394 -0.059207812
0.121507704 0.04620387 -0.08885621 -0.062268 -0.06567186 -0.013592557 0.09776319 0.01309572
-0.07648722 0.12977389 -0.087247424 0.034925148 0.08283169 0.10500235 -0.03805752 -0.032990362
0.05604013 0.083571315 -0.0371264 -0.012153591 -0.0105468305 -0.008646779 -0.11236956 -0.10313618
0.11490259 -0.053580668 0.13336992 0.053129923 -0.026542636 -0.033947833 0.03265649 -0.05245501
-0.06173022 0.215347 -0.020623526 0.011350209 -0.10187325 0.0117545035 0.012535538 0.10403311
-0.019931968 0.05855148 -0.005743819 0.05521959 -0.0002650694 0.0010516751 0.130471 -0.032953855
00000000: de1e 9b3d 6d77 c73d d87b ee3b 7e96 963d
00000010: 8286 97ba 69d5 c03d 0a19 02bc 28aa f9bd
00000020: 44aa babd e4f0 6dbd 3ed0 e73c 5a94 de3d
00000030: dd36 6f3d c1d2 4c3d c09e e73c e483 72bd
00000040: 08d9 f83d 4540 3d3d 3ffa b5bd bb0c 7fbd
00000050: f87e 86bd 51b3 5ebc 1138 c83d 6e8f 563c
00000060: 55a5 9cbd 72e3 043e c7ae b2bd ac0d 0f3d
00000070: a9a3 a93d 790b d73d 34e2 1bbd e720 07bd
00000080: 568a 653d 7027 ab3d da11 18bd db1f 47bc
00000090: 9dcc 2cbc 38ab 0dbc 0322 e6bd 1039 d3bd
000000a0: 0d52 eb3d 6777 5bbd 2092 083e c39e 593d
000000b0: f16f d9bc e20c 0bbd d0c2 053d 11db 56bd
000000c0: d4d8 7cbd ed83 5c3e abf2 a8bc 3af6 393c
000000d0: eca2 d0bd f695 403c db61 4d3c 500f d53d
000000e0: 5e48 a3bc add3 6f3d a536 bcbb f02d 623d
000000f0: 03f9 8ab9 5cd8 893a 319a 053e 9ffa 06bd

layers.4.weight f4 [1, 64]
0.14248724 -0.26224452 -0.048376184 0.3983818 -0.20793502 -0.34853762 -0.23828383 0.09805101
-0.012876034 -0.21746613 -0.16866964 0.09457276 -0.30974132 -0.073831625 0.116775 0.05042161
-0.06370634 -0.05541952 -0.09231372 -0.23198771 -0.20559964 -0.21622914 -0.31143537 0.14530373
0.1054942 0.38152087 0.025425281 -0.016238417 -0.009061281 0.13166438 -0.019799247 -0.11574754
0.04969438 -0.1868897 -0.2517765 -0.16501524 -0.025480444 -0.27322376 0.02811285 -0.06836426
0.09823093 -0.114085585 0.10666467 -0.092355005 -0.030446334 -0.16062135 -0.2423194 -0.3070471
-0.03287155 0.40267408 0.06990531 0.13114078 0.08849294 -0.045933604 -0.01744093 -0.13529181
-0.23150174 0.049229637 -0.0829309 0.02025905 0.029624842 -0.32277948 0.32526907 -0.22985601
00000000: 2de8 113e ea44 86be 1b26 46bd b3f8 cb3e
00000010: ebec 54be 8673 b2be ad00 74be f8ce c83d
00000020: 00f6 52bc 71af 5ebe bcb7 2cbe 5daf c13d
00000030: 6a96 9ebe 0935 97bd bb27 ef3d e486 4e3d
00000040: 7878 82bd 94ff 62bd fa0e bdbd 308e 6dbe
00000050: b688 52be 2c6b 5dbe 7574 9fbe 80ca 143e
00000060: 580d d83d b456 c33e ae48 d03c 6e06 85bc
00000070: c475 14bc 07d3 063e 0832 a2bc 0c0d edbd
00000080: 568c 4b3d 0360 3fbe d9e8 80be c1f9 28be
00000090: 5dbc d0bc fce3 8bbe eb4c e63c 9002 8cbd
000000a0: 4c2d c93d b4a5 e9bd 0273 da3d 9f24 bdbd
000000b0: 976a f9bc ec79 24be 9422 78be 4735 9dbe
000000c0: 52a4 06bd 4c2b ce3e 842a 8f3d c549 063e
000000d0: c93b b53d e024 3cbd 48e0 8ebc f089 0abe
000000e0: cb0e 6dbe 04a5 493d add7 a9bd 4ff6 a53c
000000f0: ccaf f23c 5a43 a5be ab89 a63e 605f 6bbe
