src/backend/saved-models/nn/neural_network_01.pth (torch, 15928 bytes, 7 tensors)

layers.0.weight f4 [64, 7]
0	0x3ea40ab4	0.32039416
1	0x3ea33fb7	0.31884548
2	0xbdb45bcf	-0.088065736
3	0x3ecf686e	0.4050936
4	0xbcb3bc03	-0.021940237
5	0x3dae089d	0.084977366
6	0xbe316660	-0.17324209
7	0x3e63c2e9	0.22242321
8	0x3eaae490	0.33377504
9	0xbe8e13ba	-0.27749425
10	0x3eb48628	0.35258603
11	0x3dad5807	0.084640555
12	0x3e919332	0.28432614
13	0x3d48a906	0.04898932
14	0x3e3dbb23	0.18528418
15	0xbd592312	-0.05301196
16	0x3e946073	0.28979835
17	0x3d739191	0.059464995
18	0xbe2aac50	-0.16667295
19	0x3db8509e	0.089997515
20	0xbe317bc5	-0.1733237
21	0xbd42a580	-0.047521114
22	0xbe1d669c	-0.15371174
23	0x3e801344	0.25014699
24	0xbe9a7227	-0.30165216
25	0xbe3b88b6	-0.1831387
26	0xbdd43100	-0.103609085
27	0xbe6a1822	-0.22860768
28	0x3d07f911	0.033196513
29	0xbebf1e35	-0.37327734
30	0x3eae97f2	0.341003
31	0xbea35e07	-0.31907675
32	0x3e972509	0.29520443
33	0x3d7b9dd7	0.061429825
34	0xbdfb0f3e	-0.122587666
35	0x3e7f9192	0.24957874
36	0x3d792198	0.060823053
37	0x3e9c8104	0.3056718
38	0x3d26f7f2	0.040763803
39	0xbdda94f3	-0.10672941
40	0x3dc4fd09	0.09618575
41	0xbdccfb1e	-0.10008834
42	0x3e26f535	0.16304477
43	0x3ead3ab4	0.3383385
44	0x3e5e6054	0.21716434
45	0xbe312a5b	-0.17301314
46	0x3e588c76	0.21147332
47	0x3d962a4f	0.073322885
48	0x3e437150	0.19086194
49	0xbe763d66	-0.24046859
50	0xbec1298b	-0.37727007
51	0xbe15bcac	-0.14622754
52	0xbe9f20fa	-0.31079847
53	0x3e922223	0.2854167
54	0x3dc3d319	0.09561748
55	0x3e197e26	0.14989528
56	0x3e11a7f9	0.14224233
57	0xbb8e5a12	-0.0043442333
58	0x3e9826c8	0.29717088
59	0xbe8bd71e	-0.2731256
60	0x3d036c1e	0.03208553
61	0xbe8695e8	-0.26286244
62	0x3df8628b	0.121281706
63	0xbe0d7c02	-0.13816836
64	0x3dec0073	0.11523523
65	0xbda0196c	-0.07817349
66	0x3ea116a7	0.31462595
67	0xbe70d814	-0.23519927
68	0xbe6394bc	-0.22224706
69	0xbe6994d6	-0.22810683
70	0x3eba8d27	0.36435816
71	0x3e014a57	0.12626015
72	0x3eb94c89	0.36191204
73	0xbea58fc6	-0.32336253
74	0xbebe42e6	-0.37160414
75	0xbe976140	-0.29566383
76	0xbe82560f	-0.25456282
77	0x3e2f1162	0.17096475
78	0x3e0a7917	0.13522755
79	0x3ea0c8ec	0.3140329
80	0xbe532437	-0.20619284
81	0xbe7ca9b0	-0.24674106
82	0x3e4dad3f	0.2008562
83	0xbe1c16d3	-0.15243082
84	0x3e5f9e37	0.21837698
85	0xbdb9a4b6	-0.09064619
86	0x3e5bd7a0	0.21468973
87	0xbe97b2b8	-0.2962854
88	0xbe507994	-0.20358878
89	0x3df944a1	0.12171293
90	0x3d9a6c43	0.075401805
91	0xbdfe2688	-0.12409693
92	0x3e62c0ee	0.2214391
93	0x3e840a32	0.25789028
94	0xbe939adc	-0.28829086
95	0xbe5c411f	-0.21509217
96	0x3ea72a5c	0.32649505
97	0xbe07adba	-0.13249865
98	0xbe0cca13	-0.1374896
99	0xbebc04ae	-0.3672232
100	0xbe5e6ed8	-0.21721971
101	0x3d955241	0.07291079
102	0xbd77d52a	-0.060506023
103	0xbe8cbb35	-0.27486578
104	0x3b6802a5	0.0035401967
105	0xbe864873	-0.2622715
106	0xbea49152	-0.3214212
107	0xbe548750	-0.20754743
108	0xbeac5e8d	-0.33665887
109	0xbe8423b1	-0.2580848
110	0x3ec36efd	0.38170615
111	0x3d8c9a12	0.06865324
112	0x3e0a847f	0.13527106
113	0xbeb30ae9	-0.3496926
114	0xbe7c32d3	-0.24628763
115	0xbde39df8	-0.111141145
116	0x3db0c90c	0.08632097
117	0xbead7625	-0.338792
118	0xbe1c7df8	-0.15282428
119	0xbe67d242	-0.226388
120	0x3a5ca2f6	0.0008416617
121	0xbe103d55	-0.14085896
122	0xbcee135d	-0.029061968
123	0xbe843189	-0.25819042
124	0xbe82021d	-0.25392237
125	0xbe63ad6c	-0.22234124
126	0xbe08f46e	-0.13374493
127	0xbe98d4c6	-0.29849833
128	0x3ea2c0e7	0.31787798
129	0xbd7e9dd1	-0.062162224
130	0x3eb9c011	0.36279348
131	0x3de24975	0.11049167
132	0xbea38178	-0.31934714
133	0x3e715461	0.23567344
134	0xbdd6893a	-0.10475393
135	0xbe140692	-0.14455631
136	0xbe9e7c33	-0.3095413
137	0xbecb5c82	-0.39719015
138	0x3debb1ff	0.115085594
139	0xbdb110bc	-0.0864577
140	0x3dfa5516	0.1222326
141	0xbe9fda22	-0.3122111
142	0x3e9031f5	0.28163114
143	0xbe8eb9cf	-0.27876136
144	0xbda4d7c6	-0.08048968
145	0x3d8ec668	0.06971437
146	0x3e4301ce	0.19043657
147	0x3ea3ce19	0.31993178
148	0x3eb1b43d	0.34707823
149	0xbe99bd21	-0.30027106
150	0x3dfa0f76	0.1220998
151	0xbe15a56f	-0.14613889
152	0xbd0ff9b0	-0.03515023
153	0xbe8e8a5f	-0.27839944
154	0x3ed0b637	0.4076402
155	0xbe8a4dcf	-0.27012488
156	0x3e529328	0.20563948
157	0x3e651930	0.2237289
158	0x3e5c1eeb	0.2149617
159	0xbe41f693	-0.18941717
160	0x3ebb0516	0.36527318
161	0x3dee0422	0.11621882
162	0x3d6b34bb	0.057423335
163	0xbea83543	-0.32853135
164	0x3e99606a	0.2995637
165	0x3d2e58ad	0.042565037
166	0xbe30fedd	-0.17284723
167	0x3eb4b71d	0.35295954
168	0x3dd7ffe3	0.105468534
169	0xbe531091	-0.20611788
170	0xbe43ee75	-0.19133933
171	0x3c6b7371	0.014370785
172	0x3e759b11	0.23984934
173	0xbdace722	-0.084425226
174	0xbe582005	-0.21105964
175	0xbe0b8f68	-0.13628924
176	0xbe90a263	-0.2824889
177	0x3e0d19d0	0.13779378
178	0x3ea7a8b6	0.32745904
179	0xbeb0af69	-0.34508827
180	0x3da199fd	0.07890699
181	0x3e4cf584	0.20015532
182	0x3d8b9888	0.068162024
183	0xbe09b23e	-0.134469
184	0x3e48e40f	0.19618247
185	0x3e3d4672	0.18483904
186	0x3e059d49	0.13048281
187	0xbd7e0df5	-0.06202503
188	0xbdce0a53	-0.10060563
189	0x3d330311	0.043704096
190	0xbd81100a	-0.06301887
191	0xbde320b5	-0.11090223
192	0x3e9a6276	0.30153245
193	0x3ebd1ff7	0.3693845
194	0xbca76a12	-0.02043632
195	0xbd9f508d	-0.07779036
196	0x3b9ff3aa	0.004881342
197	0xbcb9a3f4	-0.022661187
198	0x3dbb6c8e	0.091515645
199	0x3ddb39f9	0.10704417
200	0xbeb1bb12	-0.34713036
201	0xbe0e8f75	-0.13921912
202	0x3ea3afae	0.3196997
203	0x3e227b44	0.15867335
204	0xbc9546de	-0.018222269
205	0xbe6a1a00	-0.2286148
206	0xbe7786db	-0.24172537
207	0xbeaf1142	-0.34192854
208	0xbdfda28a	-0.123845175
209	0x3e04a7b3	0.12954597
210	0x3e6ba347	0.23011504
211	0x3e3294ad	0.17439528
212	0xbeab07e4	-0.33404458
213	0xbe69814e	-0.22803232
214	0xbd8d9c21	-0.06914545
215	0x3ebdb59b	0.37052616
216	0x3d5a2c6f	0.05326503
217	0xbda69851	-0.08134521
218	0x3e231f32	0.15929869
219	0xbe13623c	-0.14392942
220	0xbe75d587	-0.24007235
221	0x3e943aa7	0.28950998
222	0xbe343f30	-0.17602229
223	0xbd910bc5	-0.07082323
224	0xbec2e24c	-0.38063276
225	0x3e8031d1	0.25038007
226	0x3e90b2ff	0.28261563
227	0x3dd3dbe3	0.103446744
228	0xbe93078d	-0.28716698
229	0xbebad5d8	-0.36491275
230	0xbea1b85b	-0.31585965
231	0x3e8fadb0	0.280622
232	0x3e39a617	0.18129764
233	0x3ea2da0a	0.31806976
234	0x3e61c98e	0.22049543
235	0x3de161a2	0.1100495
236	0xbc13c0fe	-0.009018181
237	0xbe931c48	-0.28732514
238	0xbea58aad	-0.32332364
239	0xbeb4ff68	-0.3535111
240	0x3e1e8d76	0.1548365
241	0xbe3e2d25	-0.18571909
242	0xbd9cde4a	-0.07659586
243	0xbe609cf4	-0.21934873
244	0xbd8b9048	-0.06814629
245	0xbe884057	-0.26611587
246	0xbe7ef046	-0.24896345
247	0x3dfd91de	0.123813376
248	0xbe19c788	-0.15017521
249	0x3e51ed86	0.20500764
250	0xbe004a8c	-0.12528437
251	0xbe8ff393	-0.2811552
252	0xbd836c46	-0.06417136
253	0xbe3b7326	-0.18305644
254	0xbdeccbb8	-0.11562294
255	0xbeb8407e	-0.35986704

layers.0.bias f4 [64]
0	0x3e8f43c5	0.27981392
1	0xbe85d023	-0.26135358
2	0xbd337335	-0.04381104
3	0xbebc3367	-0.36757967
4	0xbe9e2f1d	-0.3089532
5	0x3d8826a0	0.06647992
6	0x3dc3ccad	0.09560523
7	0x3dedc3e6	0.1160963
8	0xbdc9492f	-0.09828412
9	0x3ec27209	0.37977627
10	0x3d8bdcdf	0.06829237
11	0xbe5dbaab	-0.2165324
12	0xbc222d3d	-0.009898481
13	0x3dea5d3a	0.11443563
14	0x3e19a99a	0.15006104
15	0xbe837a62	-0.25679308
16	0x3dde2d3d	0.10848472
17	0xbe45884f	-0.19290279
18	0xbe94c00f	-0.2905278
19	0xbe4c1aff	-0.19932173
20	0x3ebef3d9	0.37295416
21	0x3eaaaf64	0.33336937
22	0x3eb561bb	0.35426125
23	0x3e664575	0.22487433
24	0x3e8d9eed	0.27660313
25	0xbcfd3f39	-0.030913936
26	0xbe5e455b	-0.21706145
27	0x3e48e54f	0.19618724
28	0xbe456678	-0.1927737
29	0xbe7a385c	-0.24435562
30	0xbde98125	-0.114015855
31	0x3d9364a1	0.07196928
32	0x3e66c2d3	0.22535257
33	0xbe04d13f	-0.12970446
34	0xbe6332af	-0.22187303
35	0x3d818d63	0.063257955
36	0xbe656ff5	-0.2240599
37	0xbe7369de	-0.23770854
38	0x3e6146ef	0.21999715
39	0xbd4c275f	-0.049842235
40	0x3ebb0355	0.3652598
41	0x3ebc7049	0.36804417
42	0x3e0c3f22	0.13695958
43	0x3e1957d8	0.14974916
44	0x3dd1631d	0.102239825
45	0x3bb8e225	0.005642193
46	0xbcd7cdd9	-0.026343273
47	0x3d3fd3d0	0.04683286
48	0x3e16e870	0.14737105
49	0x3eb444d8	0.35208774
50	0xbdc2b4ee	-0.09507166
51	0xbe2628c5	-0.1622649
52	0xbdb3981c	-0.08769247
53	0xbe3753f0	-0.17903113
54	0x3d78e847	0.060768392
55	0x3e85907c	0.26086795
56	0x3eac3a86	0.336384
57	0x3e2c8ee1	0.16851379
58	0xbe8599e3	-0.2609397
59	0xbe59a479	-0.21254148
60	0xbca5ef01	-0.020255568
61	0xbcc3de50	-0.023909718
62	0x3d1b2adb	0.037882667
63	0xbea74962	-0.32673174

layers.2.weight f4 [32, 64]
0	0x3d8a77f9	0.06761164
1	0xbdb2ce9e	-0.08730815
2	0xbda375e1	-0.07981468
3	0xbdd5e67a	-0.104443505
4	0x3de50813	0.11183181
5	0xbdf06e68	-0.11739808
6	0x3dcddb4a	0.10051592
7	0xbc0a72d1	-0.008450226
8	0xbc0f344e	-0.008740498
9	0x3db40047	0.087891154
10	0xbc6303ca	-0.013855884
11	0x3d9ca876	0.07649319
12	0x3db4d95a	0.08830519
13	0xbdf17325	-0.1178954
14	0x3d45a63f	0.048254248
15	0x3cb1041b	0.021608403
16	0x3cbba873	0.022907471
17	0x3c946e4a	0.018118996
18	0x3d1f9f31	0.038970176
19	0xbd82c26e	-0.06384741
20	0xbd1589fe	-0.036508553
21	0x3df0cafe	0.11757468
22	0x3de4b338	0.11166996
23	0x3c8fda4d	0.017560149
24	0xbde1eab3	-0.110310934
25	0x3c9720ec	0.018448316
26	0xbd9dda2a	-0.07707627
27	0x3e0d6d08	0.13811123
28	0xbd953881	-0.07286168
29	0xbc13f680	-0.009030938
30	0xbcdedc57	-0.027204676
31	0x3cb0110c	0.021492504
32	0x3ddfc8cf	0.10926973
33	0x3ca7396b	0.020413121
34	0x3d96a665	0.07355956
35	0x3dbf1a28	0.09331161
36	0x3dddf6bc	0.108380765
37	0xbd26f303	-0.040759098
38	0xbd096e25	-0.033552308
39	0x3d81d386	0.06339173
40	0xbd87272e	-0.0659927
41	0x3d2565c5	0.040380258
42	0xbd0efe3e	-0.034910433
43	0xbdb7f55d	-0.08982346
44	0x3d77c66d	0.060491968
45	0x3cec51a4	0.028847523
46	0x3d68eac2	0.056864507
47	0x3de8f4cf	0.113748185
48	0x3d9d7aea	0.076894596
49	0x3e0fdc3a	0.14048854
50	0x3c14550d	0.009053481
51	0xbdd4775b	-0.10374328
52	0xbdb5da20	-0.08879495
53	0xbd9ed448	-0.07755333
54	0xbddc3178	-0.10751623
55	0xbd50149b	-0.0508009
56	0xbe07298a	-0.1319944
57	0xbdf105b7	-0.11768668
58	0xbd8d8b5c	-0.06911346
59	0xbdf17493	-0.11789813
60	0xbd2bf1dc	-0.041978702
61	0x3d8c678d	0.06855688
62	0x3dd349f3	0.10316839
63	0xbcc65bcd	-0.024213696
64	0xbd123849	-0.03569821
65	0x3d86952c	0.06571421
66	0xbd7e0b7d	-0.062022675
67	0xbd728757	-0.0592111
68	0x3d999a74	0.07500163
69	0xbdde8c75	-0.10866634
70	0x3c4b9fd8	0.012428246
71	0x3deae71b	0.11469861
72	0x3ca71b35	0.020398716
73	0x3d4edd6e	0.05050414
74	0xbd8ae320	-0.06781602
75	0xbabd8cce	-0.0014461519
76	0x3c107faa	0.0088195
77	0x3d161c03	0.036647808
78	0x3d75d067	0.0600132
79	0x3de060fd	0.10955999
80	0xbdab19cd	-0.083545305
81	0x3b67c4aa	0.0035365024
82	0xbd83cf0b	-0.06435975
83	0xbdc81e16	-0.097713634
84	0x3c08972d	0.008336824
85	0xbdc894a0	-0.09793973
86	0x3dbd861a	0.092540935
87	0x3c927e33	0.017882442
88	0xbd6781ba	-0.0565202
89	0x3d71707c	0.058945164
90	0xbdf5541e	-0.11978935
91	0xbd4bd6bc	-0.049765334
92	0xbcdde3fd	-0.027086252
93	0xbdd963f5	-0.106147684
94	0xbda476da	-0.08030482
95	0xbc81488e	-0.015781667
96	0x3de5f07a	0.11227508
97	0x3df4774c	0.119368166
98	0x3da1c9fd	0.07899854
99	0xbd8a1707	-0.06742673
100	0xbdab754e	-0.083719835
101	0x3ddc9df2	0.10772313
102	0x3d6bf2a2	0.05760444
103	0x3a2f3791	0.0006684
104	0x3d34c024	0.044128552
105	0xbd9cedb9	-0.076625295
106	0xbd0679ec	-0.032831118
107	0x3e0325d0	0.12807393
108	0xbd0f8c94	-0.035046175
109	0xbbe5dc95	-0.007014821
110	0xbdccf3cc	-0.10007438
111	0xbd824992	-0.06361689
112	0x3bee031e	0.007263555
113	0xbd8346fa	-0.06410022
114	0xbc9eb820	-0.019374907
115	0x3d4911e7	0.04908934
116	0xbdf96e39	-0.121792264
117	0x3d187d90	0.03722912
118	0xbdab2fe6	-0.08358745
119	0xbd58ae4e	-0.052900605
120	0x3d81a5ad	0.06330428
121	0x3de25761	0.110518225
122	0xbd13d3ce	-0.036090665
123	0xbd58d00c	-0.052932784
124	0xbdf7db0d	-0.121023275
125	0xbd8a683a	-0.06758161
126	0xbdda734d	-0.10666523
127	0xbd0617f3	-0.032737684
128	0x3c0aaf2a	0.008464614
129	0xbdef11fc	-0.11673352
130	0x3dde0757	0.10841244
131	0x3d9fd55c	0.07804367
132	0xbe04075c	-0.12893432
133	0xbd84695d	-0.06465409
134	0x3cd0c9b9	0.025486814
135	0xbcdd7fba	-0.027038444
136	0xbca86cc8	-0.020559683
137	0xbd718b29	-0.058970604
138	0x3dbc6b40	0.09200144
139	0xbd924919	-0.071428485
140	0x3dc52a07	0.09627157
141	0x3bf3f56d	0.0074450285
142	0x3cdcf5b0	0.026972622
143	0x3dcadd88	0.09905535
144	0xbcb7774f	-0.022395758
145	0xbd8faef2	-0.0701579
146	0xbcd4f55a	-0.025995899
147	0x3dc8183b	0.097702466
148	0xbdc57951	-0.0964228
149	0x3cb1b280	0.02169156
150	0xbe14b61b	-0.14522593
151	0x3d665d32	0.05624122
152	0x3d05ec96	0.03269633
153	0xb8a26b09	-7.744699e-05
154	0x3d432bdf	0.04764926
155	0xbcc9a85f	-0.024616418
156	0x3d8abe6b	0.067746006
157	0xbdcc48d4	-0.09974828
158	0xbcda9a75	-0.026684979
159	0x3d4f98b9	0.050682757
160	0x3e04a758	0.12954462
161	0x3d6c2cfe	0.057660095
162	0xbdbb8a97	-0.09157293
163	0x3dc18405	0.09449009
164	0xbd03613b	-0.032075148
165	0xbcb5e5ed	-0.022204364
166	0xbded98ba	-0.11601396
167	0xbd0b4489	-0.034000907
168	0x3dce8a1c	0.10084936
169	0x3c91f496	0.017816823
170	0xbd92a661	-0.071606405
171	0x3d0ed33c	0.034869418
172	0xbd371497	-0.04469737
173	0x3dd7daa5	0.1053975
174	0xbdecb810	-0.11558545
175	0xbd18dbf3	-0.037319135
176	0xbdf11dec	-0.11773285
177	0xbd6b575a	-0.05745635
178	0x3d2373f4	0.039905503
179	0x3def5666	0.11686401
180	0x3c8b1261	0.016976537
181	0x3df0d16b	0.11758693
182	0x3c1e1f5d	0.009651032
183	0x3d8058af	0.06266915
184	0x3dc59eec	0.096494526
185	0x3dd482f9	0.103765436
186	0xbd917c32	-0.071037665
187	0x3de1520e	0.11001979
188	0x3d5b6734	0.05356522
189	0xbd8e5961	-0.069506414
190	0xbd743654	-0.059622124
191	0xbdd65536	-0.104654714
192	0x3d55f4fa	0.05223558
193	0xbdd61eec	-0.10455117
194	0x3d63ee08	0.055646926
195	0x3d142c82	0.03617526
196	0xbdc6f711	-0.09715093
197	0x3d45cf96	0.048293673
198	0x3cb11722	0.021617476
199	0x3d7eb651	0.06218559
200	0x3dbccef0	0.09219158
201	0xbe0176a4	-0.12642914
202	0x3e10e523	0.14149909
203	0x3dd51c29	0.10405762
204	0x3d829b44	0.06377271
205	0xbe025510	-0.12727761
206	0xbd238019	-0.039917085
207	0xbd5fb5a2	-0.054616578
208	0xbbbaf258	-0.005705159
209	0x3d8dac4d	0.069176294
210	0x3d413d16	0.047177397
211	0x3dd3391c	0.10313627
212	0xbcc0cfcb	-0.023536583
213	0x3d8d48d4	0.068986565
214	0x3dc0d510	0.094156384
215	0xbdb391cb	-0.08768042
216	0xbdbe5211	-0.09292997
217	0xbd946e25	-0.07247571
218	0x3dac343d	0.08408401
219	0xbdd4d3bb	-0.10391947
220	0xbddba3a7	-0.107245736
221	0x3d96bcc7	0.07360225
222	0x3dad66c1	0.084668644
223	0x3defa861	0.117020376
224	0xbdc8e7a0	-0.09809804
225	0xbdaace4d	-0.0834013
226	0x3d84e6ca	0.06489332
227	0x3de4ec60	0.111778975
228	0x3daf33e7	0.085548215
229	0x3c7c896d	0.015413624
230	0x3d8b4611	0.068004735
231	0x3e1e282d	0.15445013
232	0xbdb4de7e	-0.088314995
233	0xbc9e5e9e	-0.019332226
234	0x3dce83aa	0.10083707
235	0xbd8b260d	-0.06794367
236	0xbda5e237	-0.08099788
237	0x3ddddfdd	0.10833714
238	0x3d8705e1	0.06592918
239	0x3cb79dc8	0.022414103
240	0xbd59fe0f	-0.053220805
241	0x3abb53c6	0.0014291934
242	0x3ddc431b	0.10754987
243	0xbd8bbab3	-0.068227194
244	0x3bb36600	0.005474806
245	0x3d92f9cc	0.07176551
246	0xbd43676e	-0.04770606
247	0x3e1c9bc6	0.15293798
248	0xbd2df0a4	-0.04246582
249	0xbd01eb9b	-0.03171883
250	0xbd046cde	-0.032330386
251	0xbd89c916	-0.06727807
252	0xbdf25f85	-0.11834625
253	0x3d961551	0.073282845
254	0x3ce19ca4	0.027540512
255	0xbdef6531	-0.116892226

layers.2.bias f4 [32]
0	0xbd8acdc4	-0.06777528
1	0x3e027877	0.12741266
2	0x3d8c491b	0.06849881
3	0x3d4cd2db	0.050005775
4	0xbd844193	-0.0645782
5	0x3d79edf0	0.06101793
6	0x39e4eac6	0.0004366247
7	0x3dce6fbb	0.10079905
8	0xb98be27e	-0.00026680896
9	0x3d456c7e	0.04819917
10	0x3c129e30	0.008948848
11	0x3d80ddd3	0.062923096
12	0x3cd43dc8	0.025908366
13	0x3e15aad3	0.14615946
14	0x3df79afb	0.12090107
15	0xbdc71096	-0.097199604
16	0xbb857fe5	-0.004074084
17	0xbddd3035	-0.108002104
18	0x3c61bb46	0.01377756
19	0x3c26e264	0.010185812
20	0x3d34d07a	0.04414413
21	0x3d487839	0.04894278
22	0x3da7594c	0.08171329
23	0xbd89b3c9	-0.067237444
24	0xbceae74f	-0.02867475
25	0xbcabfd6a	-0.02099486
26	0x3d8d7fb8	0.06909126
27	0xbc9d80d4	-0.01922647
28	0x3e1247d9	0.1428522
29	0xbd583dc8	-0.052793294
30	0xbd81179f	-0.063033335
31	0x3cc44528	0.023958758

layers.4.weight f4 [16, 32]
0	0x3e2d206e	0.16906902
1	0x3ce9f6bd	0.028560037
2	0x3d91f39c	0.07126543
3	0x3d738bad	0.059459377
4	0x3e1c5198	0.152655
5	0x3e2739a6	0.16330585
6	0x3e018823	0.12649588
7	0xbcd106a0	-0.025515854
8	0xbe0e548a	-0.13899437
9	0xbde521f4	-0.11188117
10	0x3e0af81b	0.13571207
11	0x3e5f1f4d	0.21789284
12	0xbd952f39	-0.07284398
13	0x3db50379	0.08838553
14	0x3de37271	0.11105812
15	0x3b914c70	0.004434161
16	0x3c1053bf	0.008809029
17	0xbcf8304f	-0.030296473
18	0x3dd8d955	0.10588328
19	0x3c383ddf	0.01124522
20	0x3e2c906f	0.16851972
21	0xbe5f871e	-0.21828887
22	0xbd9f2186	-0.07770066
23	0x3ca34dc2	0.019934539
24	0x3e2fa8c9	0.1715423
25	0x3dadca25	0.08485822
26	0x3de5f73a	0.11228795
27	0xbe326b0c	-0.17423648
28	0x3c958415	0.018251458
29	0xbdeefb79	-0.11669058
30	0xbe1a5e05	-0.15074928
31	0x3d0b650d	0.034031916
32	0xbde140b3	-0.109986685
33	0x3e2feada	0.17179433
34	0xbd8fa06b	-0.07013019
35	0x3d0ce585	0.034398574
36	0x3dd7b831	0.105331786
37	0xbe19d951	-0.15024306
38	0x3db948bf	0.09047078
39	0xbcb3470e	-0.021884467
40	0x3dba41c5	0.09094576
41	0x3e4e8407	0.20167552
42	0xbdb17f9f	-0.0866692
43	0xbdcc1b5e	-0.099661574
44	0x3e1bccd6	0.15214857
45	0x3d94bc2e	0.07262455
46	0xbce4368d	-0.027858043
47	0x3e0b7e64	0.13622433
48	0xbdaf112d	-0.08548198
49	0xbc1f75c1	-0.009732665
50	0x3e3a9035	0.18219073
51	0x3d94ab6b	0.07259258
52	0xbe03b0cf	-0.12860416
53	0x3de85a54	0.11345354
54	0xbe00a7ca	-0.12564006
55	0xbdc49762	-0.095991865
56	0x3de71c05	0.11284641
57	0xbd24350d	-0.040089656
58	0xbdc9a546	-0.098459765
59	0x3c4c94dc	0.012486663
60	0x3d835c18	0.0641405
61	0xbde10ca1	-0.10988737
62	0xbdef5d5d	-0.116877295
63	0xbe1c59e9	-0.15268673
64	0x3d380311	0.0449248
65	0xbde99b8b	-0.114066206
66	0x3c58b28e	0.0132261645
67	0xbd227292	-0.039660044
68	0xbded299e	-0.115802035
69	0xbd67d4ea	-0.056599535
70	0xbe0b25d3	-0.13588648
71	0xbdbfa393	-0.09357371
72	0xbbca661f	-0.0061767246
73	0xbe1ac1d3	-0.15113
74	0xbe1f1db2	-0.15538672
75	0x3e0696a3	0.13143401
76	0x3c854c51	0.016271742
77	0xbda01ced	-0.07818017
78	0xbbcde888	-0.0062838234
79	0x3e058ff0	0.13043189
80	0xbe170b28	-0.1475035
81	0xbdc00969	-0.09376795
82	0xbe033443	-0.12812905
83	0xbc5a0df9	-0.013308995
84	0xbbdf225a	-0.006809515
85	0xbe0d11c5	-0.1377631
86	0x3dfacc68	0.12246019
87	0xbe0b0222	-0.13575032
88	0x3e28aaa1	0.1647134
89	0xbdfa9ecd	-0.1223732
90	0xbcc8fdd6	-0.0245351
91	0x3d075905	0.03304388
92	0xbda1464f	-0.078747384
93	0x3e267915	0.16257127
94	0xbdfa1385	-0.12210754
95	0xbc274ddb	-0.010211433
96	0xbe011cdb	-0.12608664
97	0x3d4da38f	0.05020481
98	0x3e1b9de5	0.1519695
99	0x3e296302	0.16541675
100	0x3cb0661d	0.021533066
101	0xbdb0ec58	-0.08638829
102	0x3e2fec39	0.17179956
103	0x3c58d480	0.013234258
104	0x3dfa882e	0.122330055
105	0xbdbc9a73	-0.09209146
106	0xbda237ce	-0.079208
107	0xbe0faed7	-0.1403154
108	0x3e2883f7	0.1645659
109	0x3cfda74f	0.030963568
110	0xbdfbe9a1	-0.123004206
111	0x3c882b1d	0.01662212
112	0xbd9a265b	-0.07526847
113	0x3c1ca9b3	0.009561944
114	0x3d80feb7	0.06298583
115	0xbdb2d867	-0.08732682
116	0x3d1279a9	0.035760555
117	0xbdde2cc8	-0.10848385
118	0x3d1713ab	0.03688399
119	0xbe2ec5f0	-0.17067695
120	0x3ce86ca9	0.028372126
121	0x3e377065	0.17913969
122	0x3e281065	0.16412504
123	0x3d847a3c	0.06468627
124	0x3e0a10b6	0.13482937
125	0x3e2fff5a	0.17187253
126	0x3d5039b1	0.05083627
127	0x3d7d6f03	0.061873447
128	0x3c98feba	0.01867615
129	0x3e26bb7b	0.16282456
130	0x3e2f9735	0.17147525
131	0xbdb72196	-0.08941953
132	0xbbfd71d1	-0.0077345152
133	0xbdce92c4	-0.10086587
134	0x3d81e914	0.06343284
135	0xbe2f0fbc	-0.17095846
136	0x3d648c7b	0.055798035
137	0xbcb52e13	-0.022116696
138	0x3d55f8e7	0.052239325
139	0x3d0fe5d0	0.035131276
140	0xbd8f1ec5	-0.06988291
141	0x3e0214aa	0.12703195
142	0x3d76044c	0.06006269
143	0xbe1c24b5	-0.15248378
144	0x3e32853a	0.17433634
145	0x3e1adc3f	0.1512308
146	0x3e1f3ef1	0.15551354
147	0xbc65f8a5	-0.014036332
148	0x3d4900c1	0.049072985
149	0xbd4571a1	-0.048204068
150	0xbd82031f	-0.063482516
151	0x3daaab86	0.08333497
152	0x3d9a769d	0.07542155
153	0x3d9130d7	0.070893936
154	0xbe33034e	-0.1748173
155	0x3e1550e8	0.14581645
156	0xbd7e800c	-0.062133834
157	0x3e1ca835	0.15298541
158	0x3e15f17f	0.14642905
159	0x3da047bc	0.07826182
160	0x3e3553ed	0.17707796
161	0x3dcfeab4	0.10152188
162	0x3dd5f0e5	0.104463376
163	0xbd74d2af	-0.059771236
164	0x3e283fd6	0.16430601
165	0x3d3fc4c9	0.04681853
166	0x3dd5e7c6	0.10444598
167	0xbd23b488	-0.03996709
168	0x3e048d3d	0.12944503
169	0x3e20a33b	0.15687267
170	0xbe098c0d	-0.13432331
171	0x3e16a0c5	0.14709766
172	0xbdee18a8	-0.116257966
173	0xbdf94c0c	-0.12172708
174	0xbe169a41	-0.1470728
175	0x3d554252	0.0520652
176	0xbe07c616	-0.13259158
177	0xbd8820de	-0.06646894
178	0xbdb4e6f6	-0.08833115
179	0x3d44d085	0.048050422
180	0xbe30c73a	-0.17263499
181	0xbda5f9ae	-0.08104263
182	0x3ada97c1	0.0016677306
183	0x3c820c22	0.015874926
184	0xbda2d665	-0.07951049
185	0x3d866676	0.065625116
186	0xbdee5dbe	-0.11638974
187	0xbe194dad	-0.14971037
188	0xbccd6f1d	-0.025077397
189	0xbdc3bc51	-0.09557403
190	0x3de66219	0.112491794
191	0xbdf5928f	-0.119908445
192	0xb8d1264c	-9.97303e-05
193	0x3d94fe3b	0.07275053
194	0xbe1c5425	-0.15266474
195	0x3e110f5d	0.14166017
196	0xbda2ef61	-0.07955814
197	0xbcdcb762	-0.026942912
198	0xbddd76cb	-0.108136736
199	0xbd860c7c	-0.0654535
200	0xbd853774	-0.065047175
201	0xbe1d2d02	-0.153492
202	0x3dc176c2	0.094464794
203	0x3d0f1878	0.034935445
204	0x3e3a0173	0.18164615
205	0x3df48ea9	0.11941273
206	0x3e437418	0.19087255
207	0x3d679074	0.056534246
208	0x3dc0a590	0.094065785
209	0x3e29fc31	0.1660011
210	0x3e18320d	0.14862843
211	0xbe05a5a9	-0.13051476
212	0xbc925b71	-0.017865868
213	0xbe2e1ba6	-0.17002735
214	0x3c9d292f	0.019184677
215	0xbd7fa104	-0.062409416
216	0x3e2b9498	0.16755903
217	0x3d115a88	0.035486728
218	0x3d01db36	0.031703196
219	0xbe02990c	-0.12753695
220	0xbdf34ed1	-0.118802674
221	0x3ce3f95e	0.027828868
222	0xbdafff43	-0.08593609
223	0xbd89d9ea	-0.06731017
224	0x3e34013e	0.17578599
225	0xbddbc167	-0.10730248
226	0xbdafedd3	-0.08590283
227	0x3e307448	0.17231858
228	0x3d93e029	0.072204895
229	0xbcb9883b	-0.022647968
230	0x3d5b4986	0.053536914
231	0x3db2e949	0.08735902
232	0xbe158c69	-0.14604343
233	0x3cca269c	0.024676614
234	0x3e1a6f47	0.15081511
235	0x3e00e6b0	0.12588
236	0x3e42821e	0.18994948
237	0xbe259a46	-0.16172132
238	0x3e5cbb82	0.21555904
239	0xbdafad5f	-0.0857799
240	0xbe181b02	-0.14854053
241	0x3df9ab1f	0.12190842
242	0xbdf782ab	-0.1208547
243	0x3ce3ed32	0.027823064
244	0x3e366b2a	0.17814317
245	0xbe47c357	-0.1950811
246	0xbe012474	-0.12611562
247	0x3d76dbc6	0.060268186
248	0x3e490efe	0.19634625
249	0xbbd78e72	-0.00657826
250	0x3e6d67f0	0.2318418
251	0x3d80be1c	0.062862605
252	0x3dc8a4a4	0.09797028
253	0xbde6d360	-0.11270785
254	0x3e31002e	0.17285225
255	0x3df4d72b	0.119551025

layers.4.bias f4 [16]
0	0x3d1e0392	0.038577624
1	0x3e852712	0.2600637
2	0xbd5149cd	-0.051095773
3	0x3e29d4a0	0.16585016
4	0x3cf83c27	0.03030212
5	0xbdd928f4	-0.10603514
6	0xbcdbc12e	-0.026825514
7	0x3d9f321b	0.07773229
8	0xbd21eb3b	-0.039530974
9	0x3e9d98d2	0.30780655
10	0xbdc077d0	-0.093978524
11	0xbdc10a98	-0.09425849
12	0xbe0c059a	-0.13674012
13	0x3e2001b8	0.15625656
14	0xbb6db273	-0.0036269694
15	0xbe0edbed	-0.13951083

layers.6.weight f4 [1, 16]
0	0xbead885f	-0.33893105
1	0x3ea50c09	0.32235745
2	0x3d8d8f58	0.06912106
3	0x3d8f1c93	0.06987872
4	0x3e482409	0.19544996
5	0xbdba1f5d	-0.09088013
6	0xbe0806cd	-0.13283844
7	0xbef5092a	-0.47858554
8	0xbc4dd9e9	-0.012564161
9	0x3efbce51	0.49180844
10	0xbc932517	-0.017962022
11	0x3e3b2a60	0.18277884
12	0x3e572f98	0.2101425
13	0xbf1ac599	-0.6045776
14	0xbee55649	-0.44792393
15	0xbdf2183a	-0.11821027
