src/backend/saved-models/nn/neural_network_01.pth (torch, 16473 bytes, 7 tensors)

layers.0.weight f4 [64, 7]
000000 b2 0a a4 3e b8 3f a3 3e d3 5b b4 bd 69 68 cf 3e
       0.3203941 0.3188455 -0.088065766 0.40509346
000010 00 bc b3 bc 99 08 ae 3d 5f 66 31 be e5 c2 63 3e
       -0.021940231 0.084977336 -0.17324208 0.22242315
000020 90 e4 aa 3e ba 13 8e be 25 86 b4 3e 05 58 ad 3d
       0.33377504 -0.27749425 0.35258594 0.08464054
000030 2d 93 91 3e 05 a9 48 3d 20 bb 3d 3e 11 23 59 bd
       0.284326 0.048989315 0.18528414 -0.053011958
000040 73 60 94 3e 9d 91 73 3d 49 ac 2a be 98 50 b8 3d
       0.28979835 0.05946504 -0.16667284 0.08999747
000050 c2 7b 31 be 83 a5 42 bd 9c 66 1d be 44 13 80 3e
       -0.17332366 -0.047521126 -0.15371174 0.25014699
000060 2a 72 9a be af 88 3b be 02 31 d4 bd 23 18 6a be
       -0.30165225 -0.1831386 -0.1036091 -0.2286077
000070 14 f9 07 3d 35 1e bf be f2 97 ae 3e 07 5e a3 be
       0.033196524 -0.37327734 0.341003 -0.31907675
000080 08 25 97 3e de 9d 7b 3d 3e 0f fb bd 92 91 7f 3e
       0.2952044 0.06142985 -0.122587666 0.24957874
000090 9c 21 79 3d 04 81 9c 3e f4 f7 26 3d ea 94 da bd
       0.060823068 0.3056718 0.04076381 -0.10672934
0000a0 19 fd c4 3d 20 fb cc bd 33 f5 26 3e b4 3a ad 3e
       0.09618587 -0.10008836 0.16304474 0.3383385
0000b0 54 60 5e 3e 55 2a 31 be 74 8c 58 3e 4b 2a 96 3d
       0.21716434 -0.17301305 0.21147329 0.073322855
0000c0 54 71 43 3e 61 3d 76 be 8b 29 c1 be ab bc 15 be
       0.190862 -0.24046852 -0.37727007 -0.14622752
0000d0 fb 20 9f be 19 22 92 3e 16 d3 c3 3d 24 7e 19 3e
       -0.3107985 0.2854164 0.09561746 0.14989525
0000e0 fe a7 11 3e 0a 5a 8e bb c8 26 98 3e 21 d7 8b be
       0.1422424 -0.0043442296 0.29717088 -0.27312568
0000f0 25 6c 03 3d e8 95 86 be 8b 62 f8 3d 03 7c 0d be
       0.032085557 -0.26286244 0.121281706 -0.13816838
000100 72 00 ec 3d 68 19 a0 bd a3 16 a1 3e 16 d8 70 be
       0.115235224 -0.07817346 0.31462583 -0.2351993
000110 bb 94 63 be d3 94 69 be 27 8d ba 3e 57 4a 01 3e
       -0.22224705 -0.22810678 0.36435816 0.12626015
000120 8a 4c b9 3e c4 8f a5 be e4 42 be be 44 61 97 be
       0.36191207 -0.32336247 -0.37160408 -0.29566395
000130 0a 56 82 be 5f 11 2f 3e 17 79 0a 3e eb c8 a0 3e
       -0.25456268 0.1709647 0.13522755 0.31403288
000140 38 24 53 be ae a9 7c be 37 ad 4d 3e d0 16 1c be
       -0.20619285 -0.24674103 0.20085607 -0.15243077
000150 34 9e 5f 3e b6 a4 b9 bd a1 d7 5b 3e b4 b2 97 be
       0.21837693 -0.09064619 0.21468975 -0.29628527
000160 98 79 50 be 9d 44 f9 3d 3d 6c 9a 3d 76 26 fe bd
       -0.20358884 0.1217129 0.07540176 -0.124096796
000170 ec c0 62 3e 34 0a 84 3e de 9a 93 be 18 41 5c be
       0.22143906 0.25789034 -0.28829092 -0.21509206
000180 57 2a a7 3e bd ad 07 be 11 ca 0c be ad 04 bc be
       0.3264949 -0.1324987 -0.13748957 -0.36722317
000190 d8 6e 5e be 42 52 95 3d 20 d5 77 bd 34 bb 8c be
       -0.21721971 0.0729108 -0.060505986 -0.27486575
0001a0 bd 02 68 3b 76 48 86 be 51 91 a4 be 51 87 54 be
       0.0035402023 -0.26227158 -0.32142118 -0.20754744
0001b0 88 5e ac be b4 23 84 be f6 6e c3 3e 11 9a 8c 3d
       -0.33665872 -0.2580849 0.38170594 0.06865323
0001c0 7f 84 0a 3e ea 0a b3 be d6 32 7c be fa 9d e3 bd
       0.13527106 -0.34969264 -0.24628767 -0.11114116
0001d0 0c c9 b0 3d 1f 76 ad be fa 7d 1c be 43 d2 67 be
       0.08632097 -0.33879182 -0.15282431 -0.22638802
0001e0 fd a2 5c 3a 57 3d 10 be 58 13 ee bc 88 31 84 be
       0.0008416621 -0.140859 -0.029061958 -0.2581904
0001f0 1f 02 82 be 6b ad 63 be 6e f4 08 be c7 d4 98 be
       -0.25392243 -0.22234122 -0.13374493 -0.29849836
000200 e7 c0 a2 3e ce 9d 7e bd 0d c0 b9 3e 76 49 e2 3d
       0.31787798 -0.062162213 0.36279336 0.11049168
000210 78 81 a3 be 5c 54 71 3e 38 89 d6 bd 91 06 14 be
       -0.31934714 0.23567337 -0.10475391 -0.1445563
000220 34 7c 9e be 85 5c cb be 0b b2 eb 3d be 10 b1 bd
       -0.30954134 -0.39719024 0.115085684 -0.086457714
000230 1c 55 fa 3d 21 da 9f be f5 31 90 3e d2 b9 8e be
       0.122232646 -0.31221107 0.28163114 -0.27876145
000240 c5 d7 a4 bd 63 c6 8e 3d cf 01 43 3e 15 ce a3 3e
       -0.08048967 0.06971433 0.19043659 0.31993166
000250 3e b4 b1 3e 23 bd 99 be 8c 0f fa 3d 72 a5 15 be
       0.34707826 -0.30027112 0.122099966 -0.14613894
000260 aa f9 0f bd 60 8a 8e be 33 b6 d0 3e ce 4d 8a be
       -0.035150208 -0.27839947 0.40764007 -0.27012485
000270 2b 93 52 3e 38 19 65 3e ee 1e 5c 3e 89 f6 41 be
       0.20563953 0.22372901 0.21496174 -0.18941702
000280 17 05 bb 3e 18 04 ee 3d be 34 6b 3d 42 35 a8 be
       0.3652732 0.116218746 0.057423346 -0.32853132
000290 6a 60 99 3e aa 58 2e 3d dc fe 30 be 1e b7 b4 3e
       0.2995637 0.042565025 -0.17284721 0.35295957
0002a0 d8 ff d7 3d 8f 10 53 be 74 ee 43 be 1f 73 6b 3c
       0.10546845 -0.20611785 -0.19133931 0.014370709
0002b0 08 9b 75 3e 15 e7 ac bd 0d 20 58 be 69 8f 0b be
       0.23984921 -0.08442513 -0.21105976 -0.13628925
0002c0 63 a2 90 be ce 19 0d 3e b8 a8 a7 3e 6f af b0 be
       -0.2824889 0.13779375 0.3274591 -0.34508845
0002d0 fd 99 a1 3d 86 f5 4c 3e 83 98 8b 3d 3e b2 09 be
       0.07890699 0.20015535 0.06816199 -0.134469
0002e0 0f e4 48 3e 7d 46 3d 3e 48 9d 05 3e fc 0d 7e bd
       0.19618247 0.1848392 0.1304828 -0.062025055
0002f0 54 0a ce bd 13 03 33 3d 07 10 81 bd b7 20 e3 bd
       -0.10060564 0.043704104 -0.06301885 -0.11090224
000300 75 62 9a 3e f8 1f bd 3e fc 69 a7 bc 8c 50 9f bd
       0.30153242 0.36938453 -0.02043628 -0.07779035
000310 bb f3 9f 3b f3 a3 b9 bc 8e 6c bb 3d 01 3a db 3d
       0.00488135 -0.022661185 0.091515645 0.10704423
000320 0c bb b1 be 72 8f 0e be ae af a3 3e 3c 7b 22 3e
       -0.34713018 -0.13921908 0.3196997 0.15867323
000330 dc 46 95 bc 00 1a 6a be d8 86 77 be 3b 11 af be
       -0.018222265 -0.2286148 -0.24172533 -0.34192833
000340 89 a2 fd bd b3 a7 04 3e 46 a3 6b 3e ad 94 32 3e
       -0.12384517 0.12954597 0.23011503 0.17439528
000350 e4 07 ab be 4e 81 69 be 31 9c 8d bd 9d b5 bd 3e
       -0.33404458 -0.22803232 -0.06914557 0.37052622
000360 6e 2c 5a 3d 55 98 a6 bd 32 1f 23 3e 3c 62 13 be
       0.053265028 -0.08134524 0.15929869 -0.14392942
000370 86 d5 75 be a6 3a 94 3e 32 3f 34 be c5 0b 91 bd
       -0.24007234 0.28950995 -0.17602232 -0.07082323
000380 4b e2 c2 be d1 31 80 3e 01 b3 90 3e d6 db d3 3d
       -0.38063273 0.25038007 0.2826157 0.10344665
000390 8c 07 93 be dd d5 ba be 5a b8 a1 be b2 ad 8f 3e
       -0.28716695 -0.3649129 -0.31585962 0.28062207
0003a0 17 a6 39 3e 0a da a2 3e 8b c9 61 3e 9c 61 e1 3d
       0.18129764 0.31806976 0.22049539 0.11004946
0003b0 f6 c0 13 bc 49 1c 93 be ac 8a a5 be 68 ff b4 be
       -0.009018173 -0.28732517 -0.3233236 -0.3535111
0003c0 76 8d 1e 3e 23 2d 3e be 47 de 9c bd f3 9c 60 be
       0.1548365 -0.18571906 -0.076595835 -0.21934871
0003d0 47 90 8b bd 5c 40 88 be 45 f0 7e be df 91 fd 3d
       -0.06814628 -0.26611602 -0.24896343 0.12381338
0003e0 89 c7 19 be 88 ed 51 3e 8c 4a 00 be 94 f3 8f be
       -0.15017523 0.20500767 -0.12528437 -0.28115523
0003f0 3d 6c 83 bd 26 73 3b be b8 cb ec bd 81 40 b8 be
       -0.06417129 -0.18305644 -0.11562294 -0.35986713

layers.0.bias f4 [64]
000000 c4 43 8f 3e 23 d0 85 be 4c 73 33 bd 68 33 bc be
       0.2798139 -0.26135358 -0.043811128 -0.3675797
000010 1b 2f 9e be ab 26 88 3d 9a cc c3 3d dc c3 ed 3d
       -0.30895314 0.06648 0.09560509 0.11609623
000020 2f 49 c9 bd 09 72 c2 3e db dc 8b 3d b6 ba 5d be
       -0.09828412 0.37977627 0.06829234 -0.21653256
000030 5c 2d 22 bc 37 5d ea 3d 9f a9 19 3e 66 7a 83 be
       -0.00989851 0.114435606 0.15006112 -0.2567932
000040 3a 2d de 3d 53 88 45 be 10 c0 94 be f9 1a 4c be
       0.1084847 -0.19290285 -0.29052782 -0.19932164
000050 d7 f3 be 3e 69 af aa 3e bb 61 b5 3e 79 45 66 3e
       0.3729541 0.33336952 0.35426125 0.22487439
000060 ec 9e 8d 3e 61 3f fd bc 5b 45 5e be 4d e5 48 3e
       0.2766031 -0.03091401 -0.21706145 0.19618721
000070 78 66 45 be 59 38 7a be 0f 81 e9 bd 98 64 93 3d
       -0.1927737 -0.24435557 -0.11401569 0.07196921
000080 e2 c2 66 3e 42 d1 04 be b1 32 63 be 4e 8d 81 3d
       0.2253528 -0.1297045 -0.22187306 0.0632578
000090 f4 6f 65 be de 69 73 be ec 46 61 3e 02 27 4c bd
       -0.22405988 -0.23770854 0.21999711 -0.04984189
0000a0 64 03 bb 3e 44 70 bc 3e 1e 3f 0c 3e db 57 19 3e
       0.36526024 0.36804402 0.13695952 0.1497492
0000b0 12 63 d1 3d 75 e3 b8 3b 00 ce d7 bc d5 d3 3f 3d
       0.10223974 0.0056423494 -0.026343346 0.04683288
0000c0 6b e8 16 3e dd 44 b4 3e f0 b4 c2 bd c1 28 26 be
       0.14737098 0.3520879 -0.09507167 -0.16226484
0000d0 1a 98 b3 bd f4 53 37 be 28 e8 78 3d 76 90 85 3e
       -0.087692454 -0.1790312 0.060768276 0.26086777
0000e0 81 3a ac 3e e8 8e 2c 3e e4 99 85 be 77 a4 59 be
       0.33638385 0.1685139 -0.26093972 -0.21254145
0000f0 c0 ee a5 bc 76 de c3 bc e9 2a 1b 3d 65 49 a7 be
       -0.020255446 -0.023909789 0.03788272 -0.32673183

layers.2.weight f4 [32, 64]
000000 f9 77 8a 3d a0 ce b2 bd e2 75 a3 bd 7a e6 d5 bd
       0.06761164 -0.08730817 -0.07981469 -0.104443505
000010 12 08 e5 3d 69 6e f0 bd 4e db cd 3d b3 72 0a bc
       0.1118318 -0.11739809 0.10051595 -0.008450198
000020 40 34 0f bc 47 00 b4 3d bf 03 63 bc 77 a8 9c 3d
       -0.008740485 0.087891154 -0.013855874 0.076493196
000030 59 d9 b4 3d 27 73 f1 bd 3f a6 45 3d 1f 04 b1 3c
       0.08830518 -0.11789542 0.048254248 0.02160841
000040 7f a8 bb 3c 44 6e 94 3c 2f 9f 1f 3d 6e c2 82 bd
       0.022907494 0.018118985 0.03897017 -0.06384741
000050 f2 89 15 bd 00 cb f0 3d 34 b3 e4 3d 45 da 8f 3c
       -0.036508508 0.11757469 0.11166993 0.017560134
000060 aa ea e1 bd dc 20 97 3c 2a da 9d bd 0b 6d 0d 3e
       -0.11031087 0.018448286 -0.07707627 0.13811128
000070 80 38 95 bd 7b f6 13 bc 51 dc de bc 1c 11 b0 3c
       -0.07286167 -0.0090309335 -0.027204664 0.021492533
000080 c8 c8 df 3d 6a 39 a7 3c 67 a6 96 3d 2b 1a bf 3d
       0.10926968 0.02041312 0.073559575 0.09331163
000090 be f6 dd 3d 01 f3 26 bd 1f 6e 09 bd 88 d3 81 3d
       0.10838078 -0.04075909 -0.033552285 0.063391745
0000a0 27 27 87 bd d4 65 25 3d 42 fe 0e bd 55 f5 b7 bd
       -0.065992646 0.040380314 -0.034910448 -0.0898234
0000b0 68 c6 77 3d 9e 51 ec 3c c8 ea 68 3d d2 f4 e8 3d
       0.06049195 0.028847512 0.05686453 0.11374821
0000c0 ee 7a 9d 3d 37 dc 0f 3e ff 54 14 3c 5d 77 d4 bd
       0.076894626 0.14048849 0.009053468 -0.10374329
0000d0 1c da b5 bd 47 d4 9e bd 77 31 dc bd 96 14 50 bd
       -0.08879492 -0.077553324 -0.10751622 -0.050800882
0000e0 8a 29 07 be b3 05 f1 bd 5f 8b 8d bd 92 74 f1 bd
       -0.1319944 -0.11768665 -0.069113486 -0.11789812
0000f0 de f1 2b bd 8a 67 8c 3d f7 49 d3 3d d3 5b c6 bc
       -0.04197871 0.06855686 0.10316842 -0.024213707
000100 5f 38 12 bd 29 95 86 3d 7a 0b 7e bd 56 87 72 bd
       -0.03569829 0.06571419 -0.062022664 -0.059211098
000110 74 9a 99 3d 72 8c de bd 03 a0 4b 3c 24 e7 ea 3d
       0.07500163 -0.108666316 0.0124282865 0.11469868
000120 32 1b a7 3c 7b dd 4e 3d 15 e3 8a bd 9e 8c bd ba
       0.02039871 0.05050419 -0.06781594 -0.0014461463
000130 dd 7f 10 3c 08 1c 16 3d 76 d0 75 3d f9 60 e0 3d
       0.0088195475 0.036647826 0.060013257 0.10955996
000140 be 19 ab bd be c4 67 3b 0d cf 83 bd 12 1e c8 bd
       -0.08354519 0.003536507 -0.06435976 -0.097713605
000150 d7 97 08 3c 9c 94 c8 bd 20 86 bd 3d 2c 7e 92 3c
       0.008336983 -0.0979397 0.09254098 0.017882429
000160 8f 81 67 bd 6d 70 71 3d 1f 54 f5 bd ce d6 4b bd
       -0.05652004 0.05894511 -0.119789355 -0.0497654
000170 0d e4 dd bc f5 63 d9 bd d1 76 a4 bd 5b 48 81 bc
       -0.027086282 -0.106147684 -0.08030475 -0.015781572
000180 85 f0 e5 3d 4c 77 f4 3d fc c9 a1 3d 04 17 8a bd
       0.11227516 0.119368166 0.078998536 -0.06742671
000190 51 75 ab bd f0 9d dc 3d c8 f2 6b 3d 99 3a 2f 3a
       -0.08371986 0.10772312 0.05760458 0.0006684452
0001a0 55 c0 34 3d 93 ed 9c bd d6 79 06 bd d1 25 03 3e
       0.044128735 -0.07662501 -0.032831036 0.12807395
0001b0 a3 8c 0f bd 95 dc e5 bb c4 f3 cc bd 92 49 82 bd
       -0.03504623 -0.007014821 -0.10007432 -0.06361689
0001c0 b7 03 ee 3b fd 46 83 bd 2a b8 9e bc e3 11 49 3d
       0.0072636264 -0.06410024 -0.019374926 0.049089324
0001d0 39 6e f9 bd 96 7d 18 3d de 2f ab bd 45 ae 58 bd
       -0.121792264 0.037229143 -0.08358739 -0.05290057
0001e0 c4 a5 81 3d 5b 57 e2 3d d7 d3 13 bd 0b d0 58 bd
       0.063304454 0.11051818 -0.036090698 -0.05293278
0001f0 17 db f7 bd 39 68 8a bd 44 73 da bd 00 18 06 bd
       -0.12102335 -0.0675816 -0.106665164 -0.032737732
000200 9f ae 0a 3c fd 11 ef bd 53 07 de 3d 5c d5 9f 3d
       0.0084644845 -0.11673353 0.10841241 0.07804367
000210 5d 07 04 be 66 69 84 bd a2 c9 d0 3c 8a 7f dd bc
       -0.12893434 -0.06465416 0.025486771 -0.027038354
000220 cb 6c a8 bc f8 8a 71 bd 3c 6b bc 3d 13 49 92 bd
       -0.020559689 -0.05897042 0.09200141 -0.07142844
000230 fb 29 c5 3d 6e f5 f3 3b f4 f5 dc 3c 86 dd ca 3d
       0.09627148 0.007445029 0.026972748 0.099055335
000240 10 77 b7 bc f2 ae 8f bd 62 f5 d4 bc 33 18 c8 3d
       -0.02239564 -0.0701579 -0.025995914 0.09770241
000250 45 79 c5 bd 62 b2 b1 3c 15 b6 14 be 40 5d 66 3d
       -0.09642271 0.021691505 -0.14522584 0.056241274
000260 a0 ec 05 3d a5 84 a2 b8 dc 2b 43 3d 71 a8 c9 bc
       0.032696366 -7.749469e-05 0.04764925 -0.024616452
000270 66 be 8a 3d da 48 cc bd a5 9a da bc e2 98 4f 3d
       0.06774597 -0.09974833 -0.026685068 0.05068291
000280 63 a7 04 3e fd 2c 6c 3d 95 8a bb bd 13 84 c1 3d
       0.12954478 0.05766009 -0.09157292 0.09449019
000290 33 61 03 bd ec e5 b5 bc 94 98 ed bd aa 44 0b bd
       -0.03207512 -0.022204362 -0.116013676 -0.03400103
0002a0 31 8a ce 3d cc f4 91 3c 5b a6 92 bd 60 d3 0e 3d
       0.10084952 0.017816924 -0.07160636 0.03486955
0002b0 a3 14 37 bd a8 da d7 3d 12 b8 ec bd e2 db 18 bd
       -0.044697415 0.10539752 -0.11558546 -0.03731907
0002c0 e3 1d f1 bd 42 57 6b bd ee 73 23 3d 69 56 ef 3d
       -0.117732786 -0.057456262 0.03990548 0.11686403
0002d0 54 12 8b 3c 69 d1 f0 3d fc 1e 1e 3c ab 58 80 3d
       0.016976513 0.11758692 0.009650942 0.06266912
0002e0 f1 9e c5 3d 09 83 d4 3d 31 7c 91 bd 0b 52 e1 3d
       0.09649456 0.103765555 -0.07103766 0.110019766
0002f0 16 67 5b 3d 63 59 8e bd 4e 36 74 bd 36 55 d6 bd
       0.053565107 -0.06950643 -0.0596221 -0.104654714
000300 f0 f4 55 3d ef 1e d6 bd 13 ee 63 3d 8b 2c 14 3d
       0.052235544 -0.10455119 0.055646967 0.036175292
000310 11 f7 c6 bd a0 cf 45 3d 18 17 b1 3c 46 b6 7e 3d
       -0.09715093 0.04829371 0.021617457 0.06218555
000320 f6 ce bc 3d a0 76 01 be 2e e5 10 3e 2e 1c d5 3d
       0.09219162 -0.12642908 0.14149925 0.104057655
000330 51 9b 82 3d 07 55 02 be 1d 80 23 bd 82 b5 5f bd
       0.063772805 -0.12727748 -0.0399171 -0.05461646
000340 78 f2 ba bb 52 ac 8d 3d 16 3d 41 3d 29 39 d3 3d
       -0.005705174 0.06917633 0.047177397 0.10313637
000350 ad cf c0 bc d5 48 8d 3d 0d d5 c0 3d c8 91 b3 bd
       -0.023536528 0.06898657 0.09415636 -0.0876804
000360 1a 52 be bd 21 6e 94 bd 3d 34 ac 3d bd d3 d4 bd
       -0.092930034 -0.07247568 0.08408401 -0.10391948
000370 a0 a3 db bd cd bc 96 3d ce 66 ad 3d 60 a8 ef 3d
       -0.10724568 0.0736023 0.08466874 0.11702037
000380 9e e7 c8 bd 4b ce aa bd cc e6 84 3d 60 ec e4 3d
       -0.098098025 -0.083401285 0.064893335 0.111778975
000390 eb 33 af 3d 5f 89 7c 3c 0f 46 8b 3d 30 28 1e 3e
       0.085548244 0.015413611 0.06800472 0.15445018
0003a0 7b de b4 bd a5 5e 9e bc a8 83 ce 3d 0e 26 8b bd
       -0.08831497 -0.01933224 0.10083705 -0.06794368
0003b0 2f e2 a5 bd e1 df dd 3d e7 05 87 3d 01 9e b7 3c
       -0.08099782 0.10833717 0.06592923 0.02241421
0003c0 12 fe 59 bd 0c 53 bb 3a 23 43 dc 3d b0 ba 8b bd
       -0.053220816 0.0014291718 0.10754993 -0.06822717
0003d0 ad 66 b3 3b d4 f9 92 3d 76 67 43 bd bd 9b 1c 3e
       0.0054748864 0.07176557 -0.04770609 0.15293784
0003e0 90 f0 2d bd 9f eb 01 bd d6 6c 04 bd 15 c9 89 bd
       -0.042465746 -0.031718846 -0.032330357 -0.067278065
0003f0 84 5f f2 bd 50 15 96 3d b4 9c e1 3c 2d 65 ef bd
       -0.118346244 0.07328284 0.027540542 -0.116892196

layers.2.bias f4 [32]
000000 ba cd 8a bd 83 78 02 3e 42 49 8c 3d d6 d2 4c 3d
       -0.067775205 0.12741284 0.0684991 0.050005756
000010 76 41 84 bd 4d ee 79 3d c5 ea e4 39 a0 6f ce 3d
       -0.06457798 0.061018277 0.00043662466 0.100798845
000020 40 de 8b b9 7f 6c 45 3d 78 9e 12 3c ce dd 80 3d
       -0.00026677735 0.048199173 0.008948915 0.06292306
000030 18 3e d4 3c e0 aa 15 3e 1e 9b f7 3d 8c 10 c7 bd
       0.025908515 0.14615965 0.12090133 -0.09719953
000040 79 80 85 bb 35 30 dd bd 86 bc 61 3c 77 e2 26 3c
       -0.004074153 -0.108002104 0.013777858 0.010185829
000050 74 d0 34 3d 0a 78 48 3d 4c 59 a7 3d c9 b3 89 bd
       0.04414411 0.048942603 0.08171329 -0.067237444
000060 2b e7 ea bc 1b fd ab bc c8 7f 8d 3d ad 80 9d bc
       -0.028674683 -0.020994714 0.06909138 -0.019226396
000070 d3 47 12 3e c8 3d 58 bd 84 17 81 bd 6a 45 c4 3c
       0.14285211 -0.052793294 -0.063033134 0.02395888

layers.4.weight f4 [16, 32]
000000 6d 20 2d 3e a5 f6 e9 3c 8c f3 91 3d a8 8b 73 3d
       0.169069 0.028559992 0.07126531 0.05945936
000010 97 51 1c 3e a7 39 27 3e 23 88 01 3e 90 06 d1 bc
       0.15265499 0.16330586 0.12649588 -0.025515825
000020 8a 54 0e be fa 21 e5 bd 1d f8 0a 3e 46 1f 5f 3e
       -0.13899437 -0.11188121 0.1357121 0.21789274
000030 43 2f 95 bd 68 03 b5 3d 6e 72 e3 3d 68 4c 91 3b
       -0.07284405 0.0883854 0.1110581 0.004434157
000040 be 53 10 3c 4e 30 f8 bc 3b d9 d8 3d c3 3d 38 3c
       0.008809028 -0.030296471 0.105883084 0.011245194
000050 6e 90 2c 3e 22 87 5f be 88 21 9f bd c2 4d a3 3c
       0.1685197 -0.21828893 -0.077700675 0.019934539
000060 c5 a8 2f 3e 19 ca ad 3d 32 f7 e5 3d 0c 6b 32 be
       0.17154224 0.08485813 0.112287894 -0.17423648
000070 fd 83 95 3c 79 fb ee bd 08 5e 1a be ee 64 0b 3d
       0.018251413 -0.11669058 -0.15074933 0.0340318
000080 a2 40 e1 bd dc ea 2f 3e 68 a0 8f bd 7a e5 0c 3d
       -0.10998656 0.17179435 -0.07013017 0.034398533
000090 31 b8 d7 3d 52 d9 19 be bf 48 b9 3d 1f 47 b3 bc
       0.105331786 -0.15024307 0.09047078 -0.0218845
0000a0 c7 41 ba 3d 08 84 4e 3e 90 7f b1 bd 4b 1b cc bd
       0.09094577 0.20167553 -0.08666909 -0.09966143
0000b0 d8 cc 1b 3e 38 bc 94 3d 42 36 e4 bc 68 7e 0b 3e
       0.1521486 0.072624624 -0.027857903 0.13622439
0000c0 2c 11 af bd c1 75 1f bc 3f 90 3a 3e 64 ab 94 3d
       -0.08548197 -0.009732665 0.18219088 0.07259253
0000d0 c9 b0 03 be 52 5a e8 3d c8 a7 00 be 62 97 c4 bd
       -0.12860407 0.11345352 -0.12564003 -0.095991865
0000e0 12 1c e7 3d f6 34 24 bd 44 a5 c9 bd dc 94 4c 3c
       0.11284651 -0.04008957 -0.09845975 0.012486663
0000f0 1d 5c 83 3d a1 0c e1 bd 5b 5d ef bd e5 59 1c be
       0.064140536 -0.10988737 -0.11687728 -0.15268667
000100 11 03 38 3d 8b 9b e9 bd 8e b2 58 3c 92 72 22 bd
       0.0449248 -0.114066206 0.0132261645 -0.039660044
000110 9e 29 ed bd ea d4 67 bd d3 25 0b be 93 a3 bf bd
       -0.115802035 -0.056599535 -0.13588648 -0.09357371
000120 1f 66 ca bb d3 c1 1a be b2 1d 1f be a3 96 06 3e
       -0.0061767246 -0.15113 -0.15538672 0.13143401
000130 51 4c 85 3c ed 1c a0 bd 87 e8 cd bb f0 8f 05 3e
       0.016271742 -0.07818017 -0.006283823 0.13043189
000140 28 0b 17 be 69 09 c0 bd 43 34 03 be f8 0d 5a bc
       -0.1475035 -0.09376795 -0.12812905 -0.0133089945
000150 5a 22 df bb c5 11 0d be 68 cc fa 3d 22 02 0b be
       -0.006809515 -0.1377631 0.12246019 -0.13575032
000160 a1 aa 28 3e cd 9e fa bd d7 fd c8 bc 05 59 07 3d
       0.1647134 -0.1223732 -0.024535103 0.03304388
000170 4f 46 a1 bd 15 79 26 3e 85 13 fa bd dc 4d 27 bc
       -0.078747384 0.16257127 -0.12210754 -0.010211434
000180 db 1c 01 be 91 a3 4d 3d e6 9d 1b 3e 02 63 29 3e
       -0.12608664 0.050204817 0.15196952 0.16541675
000190 1e 66 b0 3c 57 ec b0 bd 39 ec 2f 3e 7c d4 58 3c
       0.021533068 -0.08638828 0.17179956 0.013234254
0001a0 2e 88 fa 3d 71 9a bc bd d0 37 a2 bd d8 ae 0f be
       0.122330055 -0.09209145 -0.07920802 -0.14031541
0001b0 f8 83 28 3e 57 a7 fd 3c a1 e9 fb bd 1d 2b 88 3c
       0.16456592 0.030963583 -0.123004206 0.01662212
0001c0 5b 26 9a bd b1 a9 1c 3c bb fe 80 3d 67 d8 b2 bd
       -0.07526847 0.009561942 0.06298586 -0.08732682
0001d0 a6 79 12 3d c8 2c de bd a9 13 17 3d f0 c5 2e be
       0.035760544 -0.10848385 0.036883984 -0.17067695
0001e0 a8 6c e8 3c 67 70 37 3e 65 10 28 3e 3c 7a 84 3d
       0.028372124 0.17913972 0.16412504 0.06468627
0001f0 b7 10 0a 3e 5a ff 2f 3e b2 39 50 3d 05 6f 7d 3d
       0.13482939 0.17187253 0.050836273 0.061873455
000200 fc fe 98 3c 84 bb 26 3e 40 97 2f 3e bf 21 b7 bd
       0.018676274 0.16282469 0.17147541 -0.089419834
000210 30 71 fd bb d9 92 ce bd 14 e9 81 3d bc 0f 2f be
       -0.0077344403 -0.10086603 0.06343284 -0.17095846
000220 7b 8c 64 3d a0 2d b5 bc 94 f8 55 3d 91 e5 0f 3d
       0.055798035 -0.022116482 0.052239016 0.03513104
000230 c8 1e 8f bd d2 14 02 3e 1e 04 76 3d b4 24 1c be
       -0.06988293 0.12703255 0.06006252 -0.15248376
000240 3a 85 32 3e 40 dc 1a 3e 11 3f 1f 3e 96 f8 65 bc
       0.17433634 0.15123081 0.15551402 -0.014036318
000250 a2 00 49 3d 17 71 45 bd 08 03 82 bd 86 ab aa 3d
       0.04907287 -0.048203554 -0.063482344 0.08333497
000260 99 76 9a 3d ee 30 91 3d 53 03 33 be e8 50 15 3e
       0.07542152 0.07089411 -0.17481737 0.14581645
000270 f3 7f 7e bd 35 a8 1c 3e 84 f1 15 3e bb 47 a0 3d
       -0.06213374 0.15298541 0.14642912 0.078261815
000280 ed 53 35 3e b4 ea cf 3d e5 f0 d5 3d af d2 74 bd
       0.17707796 0.10152188 0.104463376 -0.059771236
000290 d6 3f 28 3e c9 c4 3f 3d c6 e7 d5 3d 88 b4 23 bd
       0.16430601 0.04681853 0.10444598 -0.03996709
0002a0 3d 8d 04 3e 3b a3 20 3e 0d 8c 09 be c5 a0 16 3e
       0.12944503 0.15687267 -0.13432331 0.14709766
0002b0 a8 18 ee bd 0c 4c f9 bd 41 9a 16 be 52 42 55 3d
       -0.116257966 -0.12172708 -0.1470728 0.0520652
0002c0 16 c6 07 be de 20 88 bd f6 e6 b4 bd 85 d0 44 3d
       -0.13259158 -0.06646894 -0.08833115 0.048050422
0002d0 3a c7 30 be ae f9 a5 bd c1 97 da 3a 22 0c 82 3c
       -0.17263499 -0.08104263 0.0016677306 0.015874926
0002e0 65 d6 a2 bd 76 66 86 3d be 5d ee bd ad 4d 19 be
       -0.07951049 0.065625116 -0.11638974 -0.14971037
0002f0 1d 6f cd bc 51 bc c3 bd 19 62 e6 3d 8f 92 f5 bd
       -0.025077397 -0.09557403 0.112491794 -0.119908445
000300 6d 2c d1 b8 38 fe 94 3d 24 54 1c be 5d 0f 11 3e
       -9.9741716e-05 0.07275051 -0.15266472 0.14166017
000310 61 ef a2 bd 67 b7 dc bc cb 76 dd bd 7a 0c 86 bd
       -0.07955814 -0.026942922 -0.108136736 -0.065453485
000320 74 37 85 bd 04 2d 1d be c4 76 c1 3d 70 18 0f 3d
       -0.065047175 -0.15349203 0.09446481 0.034935415
000330 70 01 3a 3e a4 8e f4 3d 15 74 43 3e 72 90 67 3d
       0.18164611 0.11941269 0.1908725 0.05653424
000340 90 a5 c0 3d 32 fc 29 3e 04 32 18 3e aa a5 05 be
       0.094065785 0.16600111 0.1486283 -0.13051477
000350 7b 5b 92 bc ac 1b 2e be 2a 29 9d 3c 04 a1 7f bd
       -0.017865887 -0.17002743 0.019184668 -0.062409416
000360 95 94 2b 3e 80 5a 11 3d 32 db 01 3d 0c 99 02 be
       0.16755898 0.0354867 0.03170318 -0.12753695
000370 dc 4e f3 bd 5e f9 e3 3c 43 ff af bd f3 d9 89 bd
       -0.118802756 0.027828868 -0.08593609 -0.06731024
000380 3c 01 34 3e 6c c1 db bd c9 ed af bd 50 74 30 3e
       0.17578596 -0.10730252 -0.08590276 0.1723187
000390 29 e0 93 3d 19 88 b9 bc 86 49 5b 3d 4e e9 b2 3d
       0.072204895 -0.022647904 0.053536914 0.087359056
0003a0 6a 8c 15 be 79 27 ca 3c 4c 6f 1a 3e ab e6 00 3e
       -0.14604345 0.024677025 0.15081519 0.12587993
0003b0 30 82 42 3e 37 9a 25 be 81 bb 5c 3e 60 ad af bd
       0.18994975 -0.1617211 0.21555902 -0.085779905
0003c0 02 1b 18 be 1e ab f9 3d 7d 82 f7 bd 9f ed e3 3c
       -0.14854053 0.12190841 -0.120854355 0.027823268
0003d0 28 6b 36 3e 34 c3 47 be 73 24 01 be c6 db 76 3d
       0.17814314 -0.19508058 -0.1261156 0.060268186
0003e0 fd 0e 49 3e b0 8e d7 bb ef 67 6d 3e 1c be 80 3d
       0.19634624 -0.006578289 0.23184179 0.062862605
0003f0 ba a4 c8 3d 60 d3 e6 bd 31 00 31 3e 49 d7 f4 3d
       0.09797044 -0.11270785 0.1728523 0.11955125

layers.4.bias f4 [16]
000000 50 03 1e 3d 14 27 85 3e cd 49 51 bd a5 d4 29 3e
       0.038577378 0.26006377 -0.051095773 0.16585024
000010 b4 3e f8 3c f4 28 d9 bd 7e c1 db bc 76 32 9f 3d
       0.030303337 -0.10603514 -0.026825663 0.077732965
000020 3d eb 21 bd c8 98 9d 3e d1 77 c0 bd 9b 0a c1 bd
       -0.03953098 0.30780625 -0.09397853 -0.09425851
000030 a2 05 0c be b8 01 20 3e f0 b5 6d bb ed db 0e be
       -0.13674024 0.15625656 -0.0036271773 -0.13951083

layers.6.weight f4 [1, 16]
000000 55 88 ad be 08 0c a5 3e 58 8f 8d 3d a8 1c 8f 3d
       -0.33893076 0.32235742 0.06912106 0.069878876
000010 6b 24 48 3e 5d 1f ba bd d0 06 08 be 2b 09 f5 be
       0.19545142 -0.09088013 -0.13283849 -0.47858557
000020 e7 d9 4d bc 4e ce fb 3e 1e 25 93 bc 61 2a 3b 3e
       -0.012564159 0.49180835 -0.017962035 0.18277885
000030 96 2f 57 3e 99 c5 1a bf 4f 56 e5 be 3a 18 f2 bd
       0.21014246 -0.6045776 -0.4479241 -0.11821027
