src/backend/saved-models/nn/nn_exoplanets0.pth (torch, 7407 bytes, 7 tensors)

layers.0.weight f4 [32, 7]
-0.29511514 0.284101 0.36265755 0.16217515 -0.21017714 0.1101689 0.038417142 0.07350132
-0.12631088 -0.08333019 0.3628422 0.10903081 0.08013461 -0.3623053 -0.32588625 -0.20811662
0.1486727 -0.18318582 -0.1347021 0.34614387 -0.36246336 0.3564089 -0.2618632 -0.191441
0.32991764 0.24369323 0.3097275 -0.18788135 0.17954135 -0.2535672 -0.093214415 0.11943704
-0.09535994 0.122615814 -0.09087941 0.27184725 0.12750989 0.26384738 -0.05961777 0.2723734
0.16862944 0.2596024 0.085108094 -0.19707517 0.19518273 0.37717482 -0.13356236 0.33784813
-0.036513463 0.043505635 -0.34459254 -0.28961885 -0.019543136 -0.10392147 0.11715583 0.19869517
-0.0088807205 -0.12648834 0.0019127226 -0.22832723 -0.33340445 0.188146 0.010279863 -0.10798185
-0.32070675 -0.1665561 0.09222516 -0.25708988 0.30272922 -0.28119513 -0.3703415 0.10648061
0.35625198 0.115073524 0.33346936 0.28176466 0.35285357 0.35550383 0.05790722 0.13469882
-0.33201563 0.28640783 0.3509429 0.19391145 0.1326865 -0.3025964 0.26490322 0.03379612
0.22924845 -0.31599152 0.0015966858 0.27871522 0.018132027 -0.14149378 -0.36894062 -0.18886843
0.2861983 -0.049502302 0.030717216 0.09526187 0.026819875 0.18524556 -0.32177576 0.20057938
0.25857973 -0.05784641 -0.082842976 0.010281794 0.237754 0.27354887 0.30732873 0.015432233
0.07806307 -0.01766819 -0.3466381 0.100858495 0.25485697 0.104006365 -0.12162137 -0.019754218
-0.25592265 -0.06974876 -0.3508475 0.36739162 -0.20458919 -0.14177106 -0.3128798 0.30499402
-0.017453091 -0.051825993 0.17234181 -0.07777475 0.27873096 0.23356636 0.2607581 0.2376748
0.2879187 0.19371562 0.061044477 0.264102 -0.036026254 -0.02261827 0.27103892 0.11039984
-0.04563456 0.27262095 0.28980523 -0.18440071 -0.3221206 0.17587504 -0.32348964 0.04149849
0.17157231 0.1158663 0.38874912 -0.13283223 -0.35549605 -0.13852704 -0.05670062 0.15187979
0.31646293 -0.11868801 0.2100118 0.058993835 -0.32935667 -0.36743605 0.30973482 0.22569478
0.18890852 0.04927346 0.24680775 0.38402036 -0.19390017 0.33922136 -0.037466 -0.24612346
0.121907584 -0.26621172 -0.20911457 0.26825893 -0.079708174 0.35364938 -0.20821506 -0.10034853
0.30480316 -0.085069254 -0.09403994 -0.12842889 0.0010400106 0.13969629 -0.08960491 0.132485
-0.22040129 0.28210238 -0.020165095 0.35292214 0.12753321 0.089917794 0.3686448 0.19497082
0.2409961 0.111638054 0.17868212 -0.3304744 -0.34874207 -0.272099 0.17483446 0.20996435
-0.21558662 -0.31622055 -0.012643546 0.22765285 0.26168495 -0.0402165 -0.19458593 0.27874196
-0.020618403 0.123975545 0.37701574 -0.19024377 0.083867535 -0.013412961 0.2054522 -0.07798146
00000000: 5519 97be b075 913e 40ae b93e 3e11 263e
00000010: ad38 57be 3ba0 e13d 4b5b 1d3d dc87 963d
00000020: a457 01be 05a9 aabd 74c6 b93e 8c4b df3d
00000030: 9d1d a43d 1580 b9be 90da a6be 861c 55be
00000040: a83d 183e 1095 3bbe 59ef 09be c539 b13e
00000050: cc94 b9be 3a7b b63e ef12 86be 1c09 44be
00000060: f7ea a83e b88a 793e 9a94 9e3e f863 40be
00000070: b0d9 373e 8fd3 81be 33e7 bebd 689b f43d
00000080: 124c c3bd 001e fb3d fc1e babd 902f 8b3e
00000090: f491 023e 0117 873e c331 74bd 8774 8b3e
000000a0: 32ad 2c3e 9bea 843e 274d ae3d 13ce 49be
000000b0: fbdd 473e 0f1d c13e 92c4 08be 6efa ac3e
000000c0: 248f 15bd f732 323d 6f6e b0be ec48 94be
000000d0: ed18 a0bc c8d4 d4bd 65ef ef3d bf76 4b3e
000000e0: 7180 11bc 2986 01be 52b4 fa3a 9dce 69be
000000f0: fdb3 aabe 58a9 403e df6c 283c 9725 ddbd
00000100: ad33 a4be af8d 2abe 8be0 bc3d 49a1 83be
00000110: 53ff 9a3e cff8 8fbe 679d bdbe 8212 da3d
00000120: a966 b63e abab eb3d 7fbc aa3e 7543 903e
00000130: 39a9 b43e 9904 b63e 1f30 6d3d 7dee 093e
00000140: f4fd a9be 0ca4 923e caae b33e b990 463e
00000150: f8de 073e eaed 9abe 65a1 873e cd6d 0a3d
00000160: 1bc0 6a3e a4c9 a1be e347 d13a c3b3 8e3e
00000170: 9e89 943c bfe3 10be c9e5 bcbe ba66 41be
00000180: 9588 923e edc2 4abd aca2 fb3c a818 c33d
00000190: 5bb5 db3c 03b1 3d3e cbbf a4be ae64 4d3e
000001a0: 9064 843e 5bf0 6cbd 94a9 a9bd f874 283c
000001b0: c975 733e 990e 8c3e 315a 9d3e 7ad7 7c3c
000001c0: 88df 9f3d e1bc 90bc 8d7a b1be e68e ce3d
000001d0: 9d7c 823e 4a01 d53d a014 f9bd 99d3 a1bc
000001e0: 4b08 83be 70d8 8ebd 49a2 b3be c11a bc3e
000001f0: d47f 51be 6f2c 11be c831 a0be 2d28 9c3e
00000200: c9f9 8ebc 7e47 54bd 5f7a 303e 5e48 9fbd
00000210: d3b5 8e3e 052c 6f3e 1682 853e 0661 733e
00000220: 146a 933e 635d 463e c609 7a3d 6138 873e
00000230: 4490 13bd f349 b9bc 9dc5 8a3e 5019 e23d
00000240: 4eeb 3abd f994 8b3e 5a61 943e 8ad3 3cbe
00000250: feec a4be 9618 343e 6fa0 a5be 52fa 293d
00000260: a7b0 2f3e 504b ed3d 200a c73e 2c05 08be
00000270: 9403 b6be 08da 0dbe e93e 68bd 6086 1b3e
00000280: 6e07 a23e b312 f3bd 550d 573e 85a3 713d
00000290: 70a1 a8be 9420 bcbe 9095 9e3e 881c 673e
000002a0: 3c71 413e f8d2 493d 2cbb 7c3e 519e c43e
000002b0: c48d 46be 6cae ad3e f375 19bd ca07 7cbe
000002c0: afaa f93d e74c 88be 2122 56be 3c59 893e
000002d0: 0a3e a3bd 8811 b53e 5436 55be 8883 cdbd
000002e0: 290f 9c3e ca38 aebd 0398 c0bd dd82 03be
000002f0: f750 883a 8b0c 0f3e c782 b7bd 26aa 073e
00000300: e0b0 61be b96f 903e 4531 a5bc 36b2 b43e
00000310: 1198 023e d226 b83d 03bf bc3e 6ea6 473e
00000320: aec7 763e 7ea2 e43d 72f8 363e f133 a9be
00000330: 528e b2be 8f50 8bbe ce07 333e e500 573e
00000340: bdc2 5cbe a9e7 a1be e026 4fbc d41d 693e
00000350: 92fb 853e 0fba 24bd 8941 47be 44b7 8e3e
00000360: ede7 a8bc e4e6 fd3d 3508 c13e 43cf 42be
00000370: bec2 ab3d 09c2 5bbc 1062 523e beb4 9fbd

layers.0.bias f4 [32]
-0.21128903 -0.23124443 0.18517148 -0.20439477 -0.16150337 0.2165805 0.024360526 -0.10504377
0.3753543 -0.13400692 -0.30762443 0.088912345 0.18860357 0.113428734 0.27400336 0.25201803
-0.27508748 -0.25369415 -0.31714275 0.324402 -0.27839524 -0.14693443 0.10294263 -0.20071647
0.36139628 -0.230607 0.17396075 0.21527648 0.22888015 0.04065446 0.14446883 -0.16855304
00000000: 275c 58be 57cb 6cbe 989d 3d3e dd4c 51be
00000010: 2461 25be 47c7 5d3e ba8f c73c 3021 d7bd
00000020: 702e c03e 1c39 09be f380 9dbe ad17 b63d
00000030: 4b21 413e 534d e83d 2b4a 8c3e 8208 813e
00000040: 44d8 8cbe 33e4 81be 8960 a2be 0518 a63e
00000050: d289 8ebe fb75 16be 96d3 d23d 9e88 4dbe
00000060: ef08 b93e 3e24 6cbe c422 323e 7071 5c3e
00000070: 8f5f 6a3e 4b85 263d a3ef 133e 2b99 2cbe

layers.2.weight f4 [16, 32]
0.02646369 0.0098219225 -0.018797452 -0.0045268033 -0.055611502 0.13998242 -0.04326397 0.0041049556
0.08017375 0.0794737 0.004144089 -0.17153506 -0.07919976 -0.08877938 -0.08961669 0.096209854
0.09647742 0.037963204 -0.021160541 -0.03590412 -0.03133852 0.08934333 -0.13957709 0.07594883
-0.17104478 -0.09396071 -0.033621006 -0.1503055 0.020933392 -0.13698332 0.047374386 -0.055367216
0.07092112 -0.038659498 -0.15481031 0.11069483 -0.1104647 -0.06744538 0.027806079 -0.16921759
0.048024062 0.07094754 -0.013311772 -0.16719913 0.14620867 0.1650487 0.055917278 -0.0006009837
-0.120673165 0.0038940618 -0.119375765 0.1691938 0.12631598 0.01675151 0.026344612 -0.01808847
-0.071907565 -0.024830336 -0.101195276 0.028204028 -0.028458029 0.082180075 -0.10359726 0.01812737
-0.16994105 -0.1289819 0.10892458 0.029273419 0.039064534 0.08175555 0.026216257 -0.024221798
-0.06313254 -0.06320641 -0.05827268 0.16179076 0.028057102 -0.13389605 -0.030237162 0.07994752
-0.10800923 0.118769616 0.020667689 -0.036466364 0.010255165 0.06478612 -0.15588996 0.03367774
0.14365806 0.08548812 -0.16499716 0.038917165 -0.14919752 0.040982865 0.039810516 0.1247546
-0.081484504 -0.08405328 0.15313402 -0.05799257 0.06081126 0.01690455 0.109337606 0.024514467
-0.1040381 -0.115079135 -0.15746164 0.13297825 0.060431216 0.034434073 -0.09611441 -0.078752466
0.11141524 -0.076533094 0.11201636 -0.11801242 0.11759308 -0.06832302 0.16560724 -0.09684845
-0.12763536 0.02497572 0.12227745 0.07684383 0.052085157 -0.11123196 -0.018763117 -0.013188397
0.069367886 0.040082414 -0.12927766 0.101450555 0.09090792 -0.12493348 -0.17101222 -0.045689438
-0.1737242 0.1545908 0.170819 0.09405506 0.08673753 -0.012927197 -0.036425576 -0.020174623
-0.1448151 0.029080743 0.1175319 0.12418405 0.061616667 0.023203742 -0.10533336 0.06711676
0.13831837 -0.016364418 -0.13230135 0.030021237 -0.11010873 -0.049715698 0.15279542 0.11049476
-0.13206293 -0.045022562 -0.011634417 0.06973672 0.1537715 -0.10672987 0.015905427 -0.14506197
0.11690742 -0.12493777 -0.0030993295 -0.10485923 0.10811779 -0.03684019 -0.16738461 0.054030277
0.043916415 0.054784868 -0.032181267 -0.1515538 -0.16060793 -0.12747522 -0.04468053 -0.11192321
0.102683224 0.06007857 0.090751514 0.13309787 0.085848115 -0.13331255 -0.15851912 -0.002026034
-0.16991292 0.024112422 -0.058900792 -0.109650545 -0.04984442 -0.02661161 -0.108397804 0.10372444
0.16331038 -0.1334326 0.13741663 -0.17428191 0.105056554 -0.12300488 -0.04097656 -0.06253063
0.055373117 0.06856769 -0.06758666 -0.13478595 0.16712373 0.13227087 -0.15280615 0.0009373622
0.01284824 -0.163675 0.095345795 0.06610532 -0.1574157 -0.1501199 -0.022969825 0.029584538
-0.14405431 0.11486572 -0.1204174 -0.056390356 -0.1358615 0.14097835 -0.043762732 0.020724032
-0.07945762 0.047316898 0.11173343 -0.13475367 -0.061669506 -0.17791624 -0.04590739 0.02829188
-0.14374046 -0.045234814 0.16348355 0.1755439 -0.08914003 -0.11851771 -0.14204964 0.09734178
0.032999054 0.004041322 0.17568946 0.035150435 0.16935574 0.09798473 -0.113620624 -0.059035193
00000000: 61ca d83c 21ec 203c 1dfd 99bc 9455 94bb
00000010: e3c8 63bd 8d57 0f3e 9035 31bd dd82 863b
00000020: 2332 a43d 1bc3 a23d 23cb 873b e3a6 2fbe
00000030: 7c33 a2bd f7d1 b5bd f588 b7bd ac09 c53d
00000040: f495 c53d 4e7f 1b3d df58 adbc 3310 13bd
00000050: d25c 00bd a3f9 b63d 4ced 0ebe 0f8b 9b3d
00000060: 5d26 2fbe 796e c0bd 2eb6 09bd afe9 19be
00000070: 817c ab3c 5b45 0cbe a50b 423d bcc8 62bd
00000080: 183f 913d 6c59 1ebd 9886 1ebe f9b3 e23d
00000090: 513b e2bd ce20 8abd 93c9 e33c 6047 2dbe
000000a0: e1b4 443d f24c 913d 9e19 5abc 4036 2bbe
000000b0: bab7 153e 8702 293e 8409 653d 558b 1dba
000000c0: 7e23 f7bd 8433 7f3b 487b f4bd 2441 2d3e
000000d0: fa58 013e 763a 893c a8d0 d73c 452e 94bc
000000e0: 4644 93bd fd68 cbbc 783f cfbd 220c e73c
000000f0: d020 e9bc 074e a83d cd2a d4bd da7f 943c
00000100: 0705 2ebe d513 04be da13 df3d cfce ef3c
00000110: 2202 203d 746f a73d 7ac3 d63c cb6c c6bc
00000120: a24b 81bd 5d72 81bd 55af 6ebd 7aac 253e
00000130: 02d8 e53c 0c1c 09be edb3 f7bc 86bb a33d
00000140: f133 ddbd 7c3d f33d 494f a93c c15d 15bd
00000150: 4805 283c 96ae 843d 9ea1 1fbe abf1 093d
00000160: 191b 133e 6514 af3d 04f5 28be 9b67 1f3d
00000170: 3cc7 18be a6dd 273d 5a10 233d 577f ff3d
00000180: 59e1 a6bd 2024 acbd 2acf 1c3e 9e89 6dbd
00000190: 3a15 793d 697b 8a3c 65ec df3d 90d2 c83c
000001a0: ed11 d5bd 9cae ebbd a03d 21be 732b 083e
000001b0: b986 773d be0a 0d3d a2d7 c4bd f948 a1bd
000001c0: ac2d e43d 62bd 9cbd d568 e53d 7fb0 f1bd
000001d0: a4d4 f03d f1ec 8bbd f294 293e 7b58 c6bd
000001e0: d8b2 02be e299 cc3c 9a6c fa3d 4c60 9d3d
000001f0: 3f57 553d 95cd e3bd 1cb5 99bc 2514 58bc
00000200: c010 8e3d 752d 243d 5d61 04be 4fc5 cf3d
00000210: ee2d ba3d 20dd ffbd d41d 2fbe d924 3bbd
00000220: c2e4 31be 0d4d 1e3e 2deb 2e3e f09f c03d
00000230: 72a3 b13d 98cc 53bc fc32 15bd 4045 a5bc
00000240: 694a 14be bd3a ee3c 91b4 f03d 3554 fe3d
00000250: c261 7c3d c615 be3c 04b9 d7bd 8374 893d
00000260: 55a3 0d3e ac0e 86bc 017a 07be 19ef f53c
00000270: b080 e1bd b0a2 4bbd 6776 1c3e 144b e23d
00000280: 813b 07be 9469 38bd 489e 3ebc 20d2 8e3d
00000290: 4776 1d3e 3195 dabd 194c 823c 208b 14be
000002a0: 286d ef3d 60df ffbd 1f1e 4bbb 70c0 d6bd
000002b0: dc6c dd3d bde5 16bd df66 2bbe da4e 5d3d
000002c0: b3e1 333d 1966 603d 81d0 03bd eb30 1bbe
000002d0: 6876 24be dd88 02be ee02 37bd ff37 e5bd
000002e0: 954b d23d f214 763d eedb b93d cf4a 083e
000002f0: 23d1 af3d 1683 08be d652 22be 36c7 04bb
00000300: a7fd 2dbe 6a87 c53c f541 71bd 7790 e0bd
00000310: aa29 4cbd 9700 dabc abff ddbd 7b6d d43d
00000320: d63a 273e 8ea2 08be f2b6 0c3e f576 32be
00000330: e427 d73d fce9 fbbd 0ad7 27bd 0f10 80bd
00000340: ecce 623d 386d 8c3d e06a 8abd 5405 0abe
00000350: 7c22 2b3e 0472 073e 3779 1cbe 50b9 753a
00000360: 6d81 523c 6b9a 27be a844 c33d 3a62 873d
00000370: 9531 21be 08b9 19be 372b bcbc 465b f23c
00000380: f982 13be b83e eb3d 669d f6bd 93f9 66bd
00000390: 471f 0bbe a15c 103e 8d40 33bd 72c5 a93c
000003a0: adba a2bd 5dcf 413d 7fd4 e43d defc 09be
000003b0: 2a99 7cbd ad2f 36be 6309 3cbd 5fc4 e73c
000003c0: b330 13be 2448 39bd 3b68 273e c8c1 333e
000003d0: 0c8f b6bd 6ab9 f2bd 7675 11be 215b c73d
000003e0: 042a 073d 116d 843b f0e7 333e e7f9 0f3d
000003f0: 976b 2d3e 38ac c83d eeb1 e8bd e3ce 71bd

layers.2.bias f4 [16]
-0.082562536 0.07390827 0.16976012 0.031408053 0.12945454 -0.071138814 0.014689057 0.17488293
0.086395234 -0.030290252 0.11755739 -0.16820753 0.044532873 0.014427691 0.04767341 0.042567987
00000000: 8c16 a9bd 385d 973d 99d5 2d3e bba5 003d
00000010: bb8f 043e 3ab1 91bd 5faa 703c 8314 333e
00000020: fcef b03d 4323 f8bc eec1 f03d 983e 2cbe
00000030: 1a68 363d 1f62 6c3c 3245 433d c55b 2e3d

layers.4.weight f4 [8, 16]
0.1993756 0.032741543 -0.10475338 -0.025180671 0.031238768 0.2088202 0.23728062 0.0070125903
-0.032910462 0.10662249 0.11446333 -0.15903205 -0.10598062 -0.17635147 0.30034274 0.2945496
-0.098391265 -0.21567805 -0.007216829 -0.22167486 -0.0064748977 0.21321009 0.0855805 0.24688666
-0.19119403 0.20055577 -0.13275819 -0.23966253 -0.1400514 -0.13152641 -0.015033912 -0.19562879
0.045535624 0.14580345 -0.13024591 -0.013468774 -0.21067262 -0.02143502 0.08097448 -0.18533711
-0.18935862 -0.1069462 -0.03617528 0.091187425 0.25502762 0.2364876 0.119608015 -0.050202515
-0.16476616 -0.14997776 -0.23375115 -0.15446304 0.12548465 0.16277133 0.0043854117 0.012539534
0.1931151 -0.1860229 -0.11223681 0.076684564 -0.07185986 0.06306117 -0.020883936 0.19274594
0.23277175 0.09114776 -0.0019557935 0.22962268 -0.23579279 -0.12748706 0.003052026 -0.09062624
0.24272835 -0.013577998 -0.18929812 0.018771559 0.002670589 -0.014175653 -0.10986525 0.08380179
0.07810396 0.19472656 -0.07181494 0.12315291 -0.086799346 0.20880748 0.039286587 0.22213276
-0.12926893 0.08466982 0.15573122 0.14797479 0.2250811 -0.18836634 0.06994087 0.09384605
-0.045772076 0.029806849 0.16439272 0.03028656 -0.008746278 0.17961212 0.04368088 0.17601946
-0.072489664 -0.15874404 -0.1380129 -0.24441376 -0.14264216 -0.10810557 0.21265936 -0.20368685
-0.191499 -0.010939914 0.16870707 0.19059469 0.21873237 0.019420562 0.003514543 0.08389477
0.20019981 -0.0106793465 0.16231391 -0.18165757 0.099219434 0.18934968 0.22844869 -0.079956554
00000000: 1e29 4c3e ff1b 063d f188 d6bd b247 cebc
00000010: 72e8 ff3c f6d4 553e b1f9 723e dfc9 e53b
00000020: 1fcd 06bd e45c da3d c06b ea3d 4cd9 22be
00000030: 5e0c d9bd 7b95 34be 86c6 993e 35cf 963e
00000040: 5c81 c9bd b5da 5cbe 267b ecbb bcfe 62be
00000050: 612b d4bb bf53 5a3e d444 af3d dbcf 7c3e
00000060: 5ec8 43be 7e5e 4d3e c3f1 07be 186a 75be
00000070: a269 0fbe dcae 06be cc50 76bc ea52 48be
00000080: 9083 3a3d 804d 153e 2f5f 05be 22ac 5cbc
00000090: 90ba 57be 7f98 afbc f3d5 a53d 03c9 3dbe
000000a0: 3ae7 41be 9c06 dbbd 882c 14bd 79c0 ba3d
000000b0: fb92 823e ce29 723e 0cf5 f43d 27a1 4dbd
000000c0: 76b8 28be c593 19be 765c 6fbe 8f2b 1ebe
000000d0: 0c7f 003e 87ad 263e 80b3 8f3b 9e72 4d3c
000000e0: f7bf 453e c97c 3ebe 6adc e5bd cc0c 9d3d
000000f0: 432b 93bd 3726 813d ca14 abbc 315f 453e
00000100: b85b 6e3e adab ba3d c52c 00bb 3522 6b3e
00000110: aa73 71be f88b 02be 8004 483b 409a b9bd
00000120: c88d 783e 4076 5ebc 5ed7 41be d0c6 993c
00000130: 0c05 2f3b 0041 68bc 0801 e1bd 46a0 ab3d
00000140: f8f4 9f3d 6666 473e b613 93bd 9837 fc3d
00000150: dbc3 b1bd a1d1 553e f9ea 203d c576 633e
00000160: 135f 04be 5f67 ad3d 0178 1f3e b486 173e
00000170: a97b 663e 1be3 40be 293d 8f3d 5c32 c03d
00000180: 807b 3bbd 7e2d f43c 9156 283e 851b f83c
00000190: 8c4c 0fbc 3dec 373e b9ea 323d 723e 343e
000001a0: 7675 94bd cc8d 22be 4153 0dbe 9a47 7abe
000001b0: c910 12be 7466 ddbd 60c3 593e 4993 50be
000001c0: 5018 44be 533d 33bc 8cc1 2c3e 412b 433e
000001d0: 61fb 5f3e df17 9f3c 3f54 663b 05d1 ab3d
000001e0: 2e01 4d3e 6df8 2ebc 9e35 263e 7104 3abe
000001f0: 8f33 cb3d e2e4 413e 74ee 693e 43c0 a3bd

layers.4.bias f4 [8]
0.038659815 0.018733606 0.015046409 -0.14850993 -0.16994235 0.16325901 0.010851747 0.008967993
00000000: c159 1e3d 3877 993c 3785 763c fd12 18be
00000010: 5e05 2ebe 5f2d 273e 87cb 313c 7dee 123c

layers.6.weight f4 [1, 8]
-0.37862563 0.10637611 -0.18361434 -0.111339845 -0.2379975 -0.27332097 0.014729698 -0.19436827
00000000: 38db c1be b8db d93d 6605 3cbe 2506 e4bd
00000010: 9eb5 73be baf0 8bbe d554 713c 7a08 47be
