src/backend/models/nn_exoplanets0.pth (torch, 42159 bytes, 7 tensors)

layers.0.weight f4 [64, 18]
-0.11487756 -0.10720665 0.19188206 -0.1919189 -0.17129979 0.022617593 0.05717952 -0.17662221
0.02310575 -0.18776193 0.14593282 -0.15020134 -0.18127668 -0.03799829 -0.029329246 0.10534164
-0.15911667 0.1291641 -0.15682603 0.18857022 0.045577418 0.037449084 0.15954243 -0.02447602
0.15314221 0.22470748 0.19680266 -0.08225777 0.057969842 -0.14097044 0.052331124 -0.19535045
-0.06459369 0.23479433 0.20893253 0.15321897 -0.21481039 0.021538366 -0.12505886 0.11421737
-0.17452253 -0.16121545 -0.10100399 0.08902305 -0.13201396 0.18745106 0.2234857 0.095780365
-0.16874121 0.05152295 0.053234734 -0.18486303 -0.18252411 -0.15001023 -0.10623714 -0.23281968
0.1326685 -0.13955663 0.025475334 -0.1897926 -0.08474968 -0.013025873 0.11171402 -0.011203265
-0.1506302 0.02698182 -0.10505555 -0.22158375 0.13540412 0.049725574 0.09796426 0.22364736
0.058566768 0.14130816 -0.011862977 -0.061056532 -0.2164197 0.0129797915 -0.1005729 0.080473766
0.11554533 -0.18096094 -0.14806344 0.08401918 -0.13530739 0.027767915 0.22001149 -0.19995977
-0.081931904 -0.22190009 -0.052888434 0.10107724 -0.07220222 -0.056052003 -0.023064405 -0.0984997
-0.08817472 0.1763726 -0.20878416 0.039641723 0.14904799 0.07873456 -0.1626357 -0.026666967
-0.17852603 0.09036496 -0.14536212 0.0035529002 0.10899694 -0.17921618 0.21475339 0.049740344
-0.09582359 0.06728979 -0.1054858 0.04368064 0.17877957 0.0561782 -0.09831337 -0.08466208
0.14101112 0.043999318 -0.008638091 -0.16517346 -0.09319004 -0.018389817 0.021575151 -0.19744039
0.16164768 0.15376931 0.14293374 0.21499577 0.22121893 -0.13950992 0.22786039 -0.11565228
0.113648385 0.119828194 0.19913915 -0.015382658 0.15688232 0.032243904 0.036184713 0.111536175
-0.12959944 -0.12758715 0.22375056 0.093000956 0.059358735 -0.15498626 0.19078396 -0.16796128
0.13267541 -0.06717972 -0.0723167 0.12714443 0.17970707 0.13180147 -0.07380908 -0.14917126
-0.060891587 0.1278769 0.0033631863 -0.020858617 -0.031823914 -0.22080246 0.19941719 -0.073533975
0.004442325 0.12688568 0.11291079 0.049788542 -0.09151269 0.19214429 0.11042756 -0.024799492
0.12503423 0.124464 0.071103916 -0.18248497 -0.12773202 0.22787006 -0.048282236 -0.030760037
0.12776546 -0.11047606 -0.069044635 -0.19949482 -0.02440424 0.06412662 0.20121677 -0.14586297
-0.19615324 -0.010137667 -0.12069189 -0.08371902 -0.10135842 -0.15086904 0.036065403 0.042793415
0.0074065104 0.18044448 -0.025868962 0.16340931 -0.12662095 0.0013735298 0.014765277 -0.031319205
-0.20635906 -0.16729306 -0.009725867 -0.009766383 0.20409346 -0.16814347 -0.053196006 0.2237649
-0.18754472 -0.12438932 -0.077815905 0.041240264 -0.13695739 -0.008723865 0.15409075 0.122191496
0.20684214 -0.09406697 0.07318489 0.028844198 0.15859257 0.21160471 -0.15046507 0.20009659
0.05498566 0.14945154 0.15790401 0.05057519 -0.0006812608 0.12153526 0.2257495 0.18694979
0.075370595 0.18984844 -0.226552 0.15575825 -0.022165304 -0.015802821 0.118282154 -0.022451745
-0.096591815 -0.17120089 -0.0986466 -0.15275109 -0.025098896 -0.102586664 -0.018851556 -0.18668309
00000000: ed44 ebbd 298f dbbd bb7c 443e 6386 44be
00000010: 3669 2fbe 8848 b93c 1335 6a3d 74dc 34be
00000020: 4548 bd3c aa44 40be 6a6f 153e 61ce 19be
00000030: 98a0 39be 18a4 1bbd e343 f0bc 5cbd d73d
00000040: 7bef 22be 9843 043e 0197 20be 8d18 413e
00000050: 63af 3a3d 3664 193d 175f 233e ef81 c8bc
00000060: 50d1 1c3e b819 663e a386 493e c376 a8bd
00000070: c971 6d3d 8e5a 10be 2959 563d f309 48be
00000080: b249 84bd ed6d 703e 69f2 553e 6fe5 1c3e
00000090: 41f7 5bbe 3a71 b03c 6e0f 00be ccea e93d
000000a0: 09b6 32be aa15 25be 2edb cebd b851 b63d
000000b0: ab2e 07be 2cf3 3f3e 6fd9 643e 7f28 c43d
000000c0: 7fca 2cbe bb09 533d aa0c 5a3d bc4c 3dbe
000000d0: 9ae7 3abe 489c 19be dc92 d9bd 4868 6ebe
000000e0: 40da 073e efe7 0ebe a6b1 d03c fe58 42be
000000f0: 3d91 adbd 796a 55bc 52ca e43d e68d 37bc
00000100: ce3e 1abe fa08 dd3c 5d27 d7bd dae6 62be
00000110: 61a7 0a3e 0bad 4b3d 7ca1 c83d d003 653e
00000120: b5e3 6f3d 16b3 103e ef5c 42bc 6a16 7abd
00000130: 209d 5dbe 31a9 543c 2af9 cdbd 6ecf a43d
00000140: 08a3 ec3d d34d 39be f19d 17be 3f12 ac3d
00000150: 058e 0abe 8a79 e33c b14a 613e 41c2 4cbe
00000160: eacb a7bd c739 63be 8ba1 58bd 9601 cf3d
00000170: c2de 93bd c996 65bd 90f1 bcbc 36ba c9bd
00000180: f394 b4bd 059b 343e 84cb 55be 5c5f 223d
00000190: 09a0 183e 963f a13d f989 26be af74 dabc
000001a0: 87cf 36be 4411 b93d cfd9 14be c6d7 683b
000001b0: ca39 df3d 7284 37be 50e8 5b3e 88bc 4b3d
000001c0: 293f c4bd 3bcf 893d f008 d8bd 79ea 323d
000001d0: fe11 373e 1d1b 663d 8558 c9bd 5063 adbd
000001e0: 3865 103e a138 343d c886 0dbc 3b23 29be
000001f0: 6bda bebd 3ea6 96bc 5fbe b03c d02d 4abe
00000200: f886 253e b475 1d3e 395d 123e da27 5c3e
00000210: 3787 623e b0db 0ebe 3c54 693e 1adb ecbd
00000220: 7cc0 e83d 7c68 f53d 22eb 4b3e 8b07 7cbc
00000230: c2a5 203e 2f12 043d 6c36 143d 146d e43d
00000240: b7b5 04be 35a6 02be de1e 653e 4977 be3d
00000250: 2522 733d b8b4 1ebe df5c 433e 0bfe 2bbe
00000260: 10dc 073e 8595 89bd c71a 94bd 2632 023e
00000270: 2105 383e f7f6 063e 3729 97bd 5ac0 18be
00000280: 7569 79bd 29f2 023e e768 5c3b b1df aabc
00000290: cb59 02bd 0a1a 62be 0534 4c3e fb98 96bd
000002a0: ec90 913b 52ee 013e c63d e73d 12ef 4b3d
000002b0: 016b bbbd 79c1 443e d827 e23d 4e28 cbbc
000002c0: f908 003e fbe6 fe3d ee9e 913d 57dd 3abe
000002d0: 2fcc 02be c556 693e 98c3 45bd 79fc fbbc
000002e0: f3d4 023e 4641 e2bd 4667 8dbd 5f48 4cbe
000002f0: 67eb c7bc d154 833d c50b 4e3e 1a5d 15be
00000300: 65dc 48be 7518 26bc 4f2d f7bd e174 abbd
00000310: 0195 cfbd 6a7d 1abe 51b9 133d 2648 2f3d
00000320: 50b2 f23b 70c6 383e 25eb d3bc c554 273e
00000330: eca8 01be 0308 b43a 0fea 713c 9148 00bd
00000340: ca4f 53be df4e 2bbe 3e59 1fbc 2e03 20bc
00000350: e0fd 503e cd2d 2cbe 0ee4 59bd a022 653e
00000360: b90b 40be d4bf febd f25d 9fbd 8deb 283d
00000370: 8f3e 0cbe 8bee 0ebc f7c9 1d3e 893f fa3d
00000380: 6dce 533e 2fa6 c0bd f6e1 953d ab4a ec3c
00000390: 1766 223e e8ae 583e 8413 1abe 1fe6 4c3e
000003a0: a538 613d d309 193e 97b1 213e ee27 4f3d
000003b0: a396 32ba 7ae7 f83d e02a 673e c46f 3f3e
000003c0: e65b 9a3d a167 423e 3ffd 67be 177f 1f3e
000003d0: 0394 b5bc eb74 81bc ea3d f23d b9ec b7bc
000003e0: eed1 c5bd 494f 2fbe 3b07 cabd c86a 1cbe
000003f0: 339c cdbc f518 d2bd 946e 9abc da29 3fbe

layers.0.bias f4 [64]
-0.028989924 0.1449828 0.09659834 0.111450784 0.019555574 -0.067867436 0.061676178 -0.0027577698
-0.09986731 0.22855347 0.1346374 -0.06687601 -0.18971223 0.05426639 -0.005506564 -0.1943202
0.18614654 0.029869553 -0.14369392 0.15694997 0.010280803 0.08605296 0.2234416 -0.22416463
-0.020998446 0.19119292 -0.015078391 -0.051285755 0.035663262 -0.22696114 0.16919 -0.22682466
-0.12870447 0.06777546 -0.11828484 0.09677653 -0.07849812 0.13346827 0.2152022 -0.05549762
-0.18387881 0.010899809 0.16846302 -0.05382967 -0.059365135 0.20647049 0.022505995 -0.22097374
-0.05018761 0.13989043 -0.16183953 0.22194006 0.047041547 -0.013736278 -0.11125735 0.095047206
0.0020597233 0.22192827 -0.03770985 -0.087232925 0.13299815 0.012379329 -0.111650996 0.013431166
00000000: 477c edbc 5f76 143e 5ad5 c53d 4f40 e43d
00000010: 0333 a03c 15fe 8abd 29a0 7c3d b3bb 34bb
00000020: 3b87 ccbd ec09 6a3e 63de 093e 4af6 88bd
00000030: ec43 42be 6f46 5e3d 6870 b4bb e0fb 46be
00000040: 339d 3e3e feb0 f43c 8024 13be 7eb7 203e
00000050: d070 283c 893c b03d e0cd 643e 6a8b 65be
00000060: ef04 acbc 14c8 433e 5b0b 77bc 0311 52bd
00000070: a413 123d 8068 68be 2540 2d3e b944 68be
00000080: 1bcb 03be dccd 8a3d 523f f2bd c632 c63d
00000090: 9fc3 a0bd e8ab 083e f75d 5c3e 7951 63bd
000000a0: ba4a 3cbe 1d95 323c 9281 2c3e 807c 5cbd
000000b0: db28 73bd 006d 533e 7e5e b83c f146 62be
000000c0: 8691 4dbd 703f 0f3e 43b9 25be 4144 633e
000000d0: a3ae 403d 200e 61bc e5da e3bd 1ca8 c23d
000000e0: 6cfc 063b 2a41 633e a575 1abd 2da7 b2bd
000000f0: ab30 083e abd2 4a3c 47a9 e4bd 650e 5c3c

layers.2.weight f4 [64, 64]
-0.09200937 -0.0947654 -0.06265327 0.044095293 -0.10944988 -0.017951619 0.09990742 -0.001970451
-0.099679746 -0.066817164 0.05115701 0.071175665 -0.06858647 0.07469947 0.060704105 0.004528965
0.07379397 0.0508789 -0.040119763 0.06394698 0.1245816 -0.10267784 -0.11381722 0.11154908
0.042953502 0.016312834 0.105567575 -0.014441339 0.06152685 0.059394605 0.12071841 -0.045255125
0.05228873 -0.041339103 -0.07980062 0.1080093 -0.045366555 0.0017825289 -0.10901679 0.059564903
-0.0061240224 -0.11901857 -0.099312514 0.037276138 -0.02116155 -0.09983565 -0.05340198 0.05650202
-0.011286276 0.11362758 0.055796824 -0.11056156 0.067118414 0.010607187 0.009500542 0.12356845
-0.0668863 0.05152816 0.06296404 -0.014109573 0.06892111 -0.10443397 0.0329018 -0.0125881955
0.058908705 -0.09185184 0.07266715 0.097600825 -0.11380673 -0.102065004 -0.04606783 -0.065198034
0.037215643 -0.015248739 0.10879471 0.023468135 -0.10926219 0.08617596 -0.027413093 -0.0022001583
-0.10121657 0.038510077 -0.12032228 0.07089397 0.025828496 -0.034211393 -0.032027815 -0.05289555
0.044558186 0.049382545 0.06574091 -0.04471221 0.051786903 0.010382166 0.029171858 0.101158254
0.022014888 -0.0029792709 0.05535467 -0.027199171 0.08808156 -0.1008453 -0.10453588 0.12103863
0.118112646 -0.013897821 0.09417576 -0.020897869 -0.085704796 -0.058771018 -0.0009735157 0.06379802
0.048983634 0.042581245 0.06658864 0.09286613 0.05816006 -0.083351165 -0.044998307 -0.121981636
0.008527164 -0.11841942 -0.060338415 -0.08157682 -0.06453827 -0.06138048 0.057047985 -0.042522255
-0.06937025 0.08191117 -0.02523248 0.006564209 -0.055224795 -0.04106617 -0.014107947 0.01309581
0.008517727 -0.06490243 0.08458902 -0.07953901 0.10247772 0.09391205 -0.068197645 0.058598105
-0.08411599 0.013077273 0.08275189 -0.10359466 0.028277095 -0.05034943 -0.105845176 -0.036763243
0.123820215 -0.10146689 -0.00770868 0.02157597 -0.027123634 -0.05870875 0.090908475 0.030990722
-0.1118874 0.113744795 -0.058552854 -0.04918443 0.024936877 -0.08468866 0.0796361 0.061704006
0.028840747 0.011951902 0.01540638 -0.07177368 0.032911144 0.008974022 0.08173307 0.080337144
-0.086866975 0.08583314 -0.11827257 0.026425572 0.036445986 -0.05506383 -0.08631197 -0.03602909
-0.11858733 -0.09563271 0.04871452 -0.1168532 -0.032493453 -0.030441163 0.064926535 0.08472409
0.06557921 0.120140515 0.08140234 0.08552493 -0.03729408 0.059726104 0.10851261 0.045869824
0.025423381 0.070174865 -0.07368859 -0.10521148 -0.1238315 -0.033659056 -0.084273644 -0.051681556
-0.11053789 -0.07938091 0.11035663 0.08312127 -0.068216756 0.0707842 0.09259614 -0.06864237
0.036655217 -0.11799297 -0.06721786 -0.07490377 0.01304116 0.09782214 0.01664636 0.101072796
0.103096284 -0.08911324 0.094975814 -0.04749511 0.074297085 0.02037896 0.10209523 0.040875956
0.072295524 -0.101082884 -0.07365925 0.041006666 0.11449191 0.062211227 0.11232719 -0.020231677
0.12457944 -0.1037987 -0.06842682 0.0410131 0.009232643 0.11083111 -0.0814446 -0.06721784
0.07792738 0.09612247 -0.041418772 0.06937436 0.122591875 -0.09912632 0.008256298 -0.049713165
00000000: 696f bcbd 5d14 c2bd 5c50 80bd 449d 343d
00000010: 4227 e0bd 460f 93bc 439c cc3d af22 01bb
00000020: e524 ccbd 70d7 88bd 038a 513d 8cc4 913d
00000030: 1077 8cbd 09fc 983d dea4 783d b667 943b
00000040: 4b21 973d 6566 503d 9f54 24bd a2f6 823d
00000050: a324 ff3d c248 d2bd 0119 e9bd d873 e43d
00000060: 03f0 2f3d 7ea2 853c d033 d83d 5e9b 6cbc
00000070: 9403 7c3d c247 733d 373b f73d 705d 39bd
00000080: b52c 563d 3153 29bd 826e a3bd fb33 dd3d
00000090: 48d2 39bd bfa3 e93a 3244 dfbd 54fa 733d
000000a0: 06ac c8bb 02c0 f3bd 5c64 cbbd ddae 183d
000000b0: fd5a adbc a276 ccbd 09bc 5abd aa6e 673d
000000c0: 13ea 38bc 94b5 e83d 368b 643d 196e e2bd
000000d0: 6175 893d c4c9 2d3c 29a8 1b3c 7511 fd3d
000000e0: affb 88bd 310f 533d 4af3 803d d72b 67bc
000000f0: 8326 8d3d 7ae1 d5bd 0ac4 063d b83e 4ebc
00000100: 414a 713d d11c bcbd 84d2 943d f1e2 c73d
00000110: 8113 e9bd 7507 d1bd 9fb1 3cbd 8c86 85bd
00000120: 6e6f 183d d9d5 79bc c3cf de3d 3f40 c03c
00000130: dbc4 dfbd 067d b03d 6c91 e0bc 8830 10bb
00000140: a24a cfbd bebc 1d3d 876b f6bd dc30 913d
00000150: 4896 d33c 3f21 0cbd 992f 03bd 01a9 58bd
00000160: a582 363d 5a45 4a3d 2ca3 863d 2624 37bd
00000170: 811e 543d f619 2a3c d2f9 ee3c 0f2c cf3d
00000180: 9158 b43c df3f 43bb 94bb 623d ccd0 debc
00000190: 1b64 b43d fb87 cebd e816 d6bd 1ae3 f73d
000001a0: 0be5 f13d b0b3 63bc 39df c03d 0232 abbc
000001b0: ff85 afbd e1b9 70bd 8833 7fba 89a8 823d
000001c0: 10a3 483d ac69 2e3d a05f 883d 9930 be3d
000001d0: 3e39 6e3d 04b4 aabd 2550 38bd 82d1 f9bd
000001e0: 85b5 0b3c e285 f2bd 6a25 77bd bf11 a7bd
000001f0: a42c 84bd 196a 7bbd 26ab 693d d12b 2ebd
00000200: fd11 8ebd 0bc1 a73d 59b4 cebc 9318 d73b
00000210: 6533 62bd 0035 28bd 0525 67bc cf8f 563c
00000220: f08d 0b3c 91eb 84bd 023d ad3d 59e5 a2bd
00000230: d7df d13d f654 c03d 35ab 8bbd 9104 703d
00000240: 0145 acbd 0f42 563c d379 a93d 7029 d4bd
00000250: 5ea5 e73c 343b 4ebd 5bc5 d8bd 0e95 16bd
00000260: 7495 fd3d dfcd cfbd 1899 fcbb 17c0 b03c
00000270: 6232 debc 9678 70bd 392e ba3d 41e0 fd3c
00000280: 3925 e5bd 08f3 e83d 1ed5 6fbd 9d75 49bd
00000290: 6c48 cc3c 4071 adbd 4018 a33d 57bd 7c3d
000002a0: 6e43 ec3c e9d1 433c 0b6b 7c3c 14fe 92bd
000002b0: d6cd 063d c707 133c ab63 a73d cd87 a43d
000002c0: 50e7 b1bd 49c9 af3d e438 f2bd 717a d83c
000002d0: 6348 153d 9c8a 61bd 55c4 b0bd 3d93 13bd
000002e0: eadd f2bd 15db c3bd e088 473d bb50 efbd
000002f0: db17 05bd bf5f f9bc 34f8 843d d383 ad3d
00000300: 654e 863d 3b0c f63d 45b6 a63d b227 af3d
00000310: adc1 18bd 5ca3 743d dc3b de3d ffe1 3b3d
00000320: b244 d03c d7b7 8f3d 0bea 96bd 1e79 d7bd
00000330: 5f9b fdbd 14de 09bd a997 acbd 0ab0 53bd
00000340: b061 e2bd 7592 a2bd a802 e23d 7c3b aa3d
00000350: 3ab5 8bbd 4ff7 903d 0ca3 bd3d 5f94 8cbd
00000360: c823 163d 4ca6 f1bd 84a9 89bd 2667 99bd
00000370: 97aa 553c f956 c83d f25d 883c 41ff ce3d
00000380: 2524 d33d 0181 b6bd ae82 c23d 3c8a 42bd
00000390: 1229 983d c7f1 a63c 4e17 d13d 8c6d 273d
000003a0: ad0f 943d 8b04 cfbd a9da 96bd 9bf6 273d
000003b0: bc7a ea3d 33d1 7e3d cc0b e63d e7bc a5bc
000003c0: 8123 ff3d 6a94 d4bd 5c23 8cbd 5afd 273d
000003d0: 8344 173c 6cfb e23d 6dcc a6bd 82a9 89bd
000003e0: 6498 9f3d dcdb c43d bba6 29bd 2514 8e3d
000003f0: 7311 fb3d bd02 cbbd 6c45 073c 08a0 4bbd

layers.2.bias f4 [64]
-0.060887706 -0.019120976 -0.09491687 -0.11363166 -0.019444095 0.12326942 0.08861576 -0.017464561
-0.0946336 0.022627724 -0.10782954 -0.0864035 0.0139663955 0.028710263 -0.057799853 -0.001175218
-0.004567937 -0.027933426 0.03306931 0.057348777 -0.07062567 -0.011931089 -0.107684694 -0.0707628
-0.12184856 -0.095314346 -0.079410605 -0.002011151 -0.0016276984 0.018394146 0.08967887 0.024285879
-0.0029397781 0.039733775 -0.061362732 -0.006659255 0.032090276 0.10860532 0.10360687 -0.11320118
0.0056273593 0.10870881 0.020667398 -0.116599806 0.0898483 -0.09269004 -0.08275897 -0.09066279
0.117365606 0.10786682 -0.03973581 0.046006504 0.038660623 -0.12308241 -0.07176731 -0.05205637
0.002493087 -0.035563845 0.08860406 -0.07911235 -0.06402656 0.01045256 -0.010954696 -0.016393969
00000000: 6365 79bd 98a3 9cbc c763 c2bd b7b7 e8bd
00000010: 3949 9fbc ad74 fc3d 2e7c b53d d711 8fbc
00000020: 43cf c1bd c75d b93c bcd5 dcbd 51f4 b0bd
00000030: 4fd3 643c c931 eb3c 8abf 6cbd c609 9aba
00000040: a2ae 95bb a4d4 e4bc af73 073d 8de6 6a3d
00000050: 31a4 90bd 9d7a 43bc cb89 dcbd 16ec 90bd
00000060: bd8b f9bd 2b34 c3bd 07a2 a2bd 84cd 03bb
00000070: 7f58 d5ba 52af 963c 8ea9 b73d 2ef3 c63c
00000080: 4ba9 40bb e2bf 223d 7d57 7bbd e135 dabb
00000090: 1871 033d 776c de3d d72f d43d 05d6 e7bd
000000a0: b665 b83b b9a2 de3d ad4e a93c e1cb eebd
000000b0: 6302 b83d 47d4 bdbd 897d a9bd 6aad b9bd
000000c0: 615d f03d 48e9 dc3d 04c2 22bd 5171 3c3d
000000d0: 9a5a 1e3d a112 fcbd bdfa 92bd 0f39 55bd
000000e0: 0f63 233b 65ab 11bd 0c76 b53d a805 a2bd
000000f0: 5b20 83bd 3741 2b3c 537b 33bc a54c 86bc

layers.4.weight f4 [64, 64]
-0.06196438 0.074074924 0.06904836 0.01405263 -0.001093648 0.11626105 0.009030506 -0.044495143
-0.072937295 0.070403226 -0.07086186 0.044493306 -0.033366263 0.054883644 0.058258433 0.089452796
-0.010185177 -0.05417865 0.016445262 -0.04709219 0.04703757 -0.005968573 -0.0048814253 0.11832607
-0.091806784 0.10192815 0.04441107 -0.07477849 0.101513095 -0.039215155 -0.098850496 -0.03111412
0.0064864354 -0.107437 0.011197521 0.06339938 -0.10592491 0.06526317 0.03631636 0.11847183
0.120879695 -0.014587372 -0.041542917 -0.124136336 -0.06344865 0.025432741 0.07658605 0.09607424
0.05564208 -0.012528307 0.032120116 0.06886014 0.095314935 0.08221966 -0.06929341 -0.05771078
-0.020060917 -0.0064873304 -0.119759455 0.097889714 0.08108308 0.107556626 0.047959536 0.12287021
-0.005344086 -0.024362711 0.012295451 0.03392523 0.036517456 -0.008163381 -0.0011017997 -0.08320682
-0.0042462237 0.065417394 -0.00016520798 -0.118484646 -0.017785007 -0.038875923 0.08489581 0.0809679
-0.07716347 0.050001755 0.029163145 -0.08194034 -0.04448185 0.011427679 0.05996154 -0.046892993
0.03393698 0.040228434 -0.10248225 -0.030376885 0.033539485 0.059074678 0.016152969 -0.04861339
-0.043386262 0.050829943 0.05280618 -0.021539345 0.123166814 0.022195335 -0.10354361 -0.00029805885
-0.016022798 -0.026142187 0.0043702703 -0.038124148 -0.060836878 0.07849096 0.07714847 -0.07680151
0.014165875 0.039535116 -0.008328424 -0.0029388175 -0.027315307 -0.010477634 -0.10048774 0.11985943
0.1203054 0.06741966 -0.049412712 -0.037891094 0.028294718 0.06267182 -0.018684529 -0.024022829
-0.11190599 -0.09414378 0.008708116 -0.005399266 -0.011306352 0.1095913 0.040482562 -0.09367938
-0.08825306 0.029340204 0.076441124 -0.11532659 0.045838073 -0.055786923 0.047438063 -0.06502823
0.10491356 0.11685088 -0.08734337 -0.11061452 0.03608647 0.100106 0.05494106 -0.060926244
0.106243104 -0.12370163 0.10412052 -0.04565176 -0.0089260535 -8.616178e-05 -0.03461633 -0.028839242
0.030680088 0.023713356 0.014465893 0.12243742 -0.012283636 -0.07774934 -0.11020628 0.09479143
-0.090369485 0.06331757 -0.07297418 -0.083592154 0.019837148 0.09485682 -0.11238506 0.08217073
-0.1243737 -0.02622191 -0.034983564 -0.09004355 -0.0969257 -0.051896326 -0.100029305 0.0012919701
-0.08353374 -0.05824587 -0.062114194 0.036825523 -0.03599363 0.07299807 0.07612769 -0.09188518
-0.021226613 -0.124621846 0.059813295 -0.027300762 0.032184627 0.04113989 0.110851936 -0.012473664
-0.03704275 0.1179692 -0.009840056 0.02286563 0.012352392 -0.06589919 0.07202944 -0.1033951
0.06251925 0.060867816 0.08163629 -0.08835904 0.08776693 0.11542257 -0.002100696 -0.118341155
-0.0059319763 -0.00068141735 -0.10934301 -0.00773845 -0.041304573 -0.11335069 0.08108538 0.03289173
-0.053268507 0.11342196 0.0063460856 0.0069094007 0.015367687 -0.103259124 -0.052722175 0.016844612
-0.046249058 0.06496897 0.003321906 0.02645613 0.12097606 -0.05361504 -0.016926235 -0.07331606
-0.10946667 0.028631115 0.08889632 0.04235494 -0.09827703 0.080896184 -0.11415006 -0.08752018
0.11373638 -0.057384253 -0.06533052 -0.051965833 -0.06000305 0.034980737 -0.06588495 -0.12311941
00000000: 5dce 7dbd 98b4 973d 3a69 8d3d 013d 663c
00000010: bd58 8fba 461a ee3d b0f4 133c 8a40 36bd
00000020: 2660 95bd 912f 903d 0620 91bd 9d3e 363d
00000030: 10ab 08bd accd 603d 65a0 6e3d 0733 b73d
00000040: bbdf 26bc 6fea 5dbd 37b8 863c bde3 40bd
00000050: 78aa 403d 0594 c3bb 5df4 9fbb f054 f23d
00000060: 3205 bcbd b5bf d03d 62e8 353d 7725 99bd
00000070: 19e6 cf3d 12a0 20bd 2172 cabd 0ae3 febc
00000080: 2a8c d43b ee07 dcbd cf75 373c 89d7 813d
00000090: 29ef d8bd b2a8 853d 77c0 143d 5ca1 f23d
000000a0: c68f f73d dfff 6ebc e828 2abd 313b febd
000000b0: 5ef1 81bd 5358 d03c 26d9 9c3d 92c2 c43d
000000c0: f3e8 633d 8743 4dbc 6290 033d 8c06 8d3d
000000d0: 7a34 c33d c862 a83d b4e9 8dbd 2462 6cbd
000000e0: cb56 a4bc ac93 d4bb 7244 f5bd 677a c83d
000000f0: e30e a63d a646 dc3d 3871 443d 60a3 fb3d
00000100: 711d afbb 4f94 c7bc dc72 493c 2ff5 0a3d
00000110: 5493 153d b4bf 05bc 436a 90ba 5668 aabd
00000120: e823 8bbb 8ef9 853d ae3b 2db9 14a8 f2bd
00000130: ddb1 91bc 5c3c 1fbd dbdd ad3d 80d2 a53d
00000140: e207 9ebd a4ce 4c3d 8ce7 ee3c 56d0 a7bd
00000150: 9a32 36bd 293b 3b3c 3b9a 753d de12 40bd
00000160: 8101 0b3d 92c6 243d 37e2 d1bd f2d8 f8bc
00000170: b360 093d 4af8 713d 3b53 843c d61e 47bd
00000180: cbb5 31bd 0f33 503d 4b4b 583d 4873 b0bc
00000190: e23e fc3d fed2 b53c ac0e d4bd c844 9cb9
000001a0: 3e42 83bc 2428 d6bc 7c34 8f3b 1128 1cbd
000001b0: 1730 79bd debf a03d 0400 9e3d 1c4a 9dbd
000001c0: fc17 683c 93ef 213d f173 08bc 2d99 40bb
000001d0: 5ac4 dfbc 62aa 2bbc 84cc cdbd dc78 f53d
000001e0: ad62 f63d 5213 8a3d fc64 4abd b133 1bbd
000001f0: 53ca e73c 155a 803d 4c10 99bc 86cb c4bc
00000200: f82e e5bd 74ce c0bd 7cac 0e3c 53ec b0bb
00000210: 473e 39bc 6771 e03d 0bd1 253d fada bfbd
00000220: 05be b4bd de5a f03c 2a8d 9c3d 5930 ecbd
00000230: b4c0 3b3d d480 64bd 6a4e 423d 852d 85bd
00000240: ecdc d63d 844f ef3d 15e1 b2bd de89 e2bd
00000250: 68cf 133d 6004 cd3d e009 613d cc8d 79bd
00000260: fc95 d93d 4857 fdbd 243d d53d 57fd 3abd
00000270: 953e 12bc c1b1 b4b8 dac9 0dbd 4640 ecbc
00000280: cf54 fb3c 8342 c23c 5a02 6d3c 78c0 fa3d
00000290: 4e41 49bc 0c3b 9fbd d5b3 e1bd 0222 c23d
000002a0: a313 b9bd a4ac 813d 7d73 95bd 5d32 abbd
000002b0: 8481 a23c 4b44 c23d 232a e6bd 2149 a83d
000002c0: a3b7 febd 55cf d6bc ed4a 0fbd c168 b8bd
000002d0: fb80 c6bd 3e91 54bd 2adc ccbd 5357 a93a
000002e0: bd13 abbd 3993 6ebd 746b 7ebd 5cd6 163d
000002f0: 0e6e 13bd 0380 953d d6e8 9b3d 4c2e bcbd
00000300: 6fe3 adbc bd39 ffbd c9fe 743d d9a5 dfbc
00000310: 07d4 033d 4d82 283d 5706 e33d 575e 4cbc
00000320: 23ba 17bd d699 f13d 3038 21bc b450 bb3c
00000330: b061 4a3c 28f6 86bd 2c84 933d cfc0 d3bd
00000340: 180a 803d 8850 793d ed30 a73d 96f5 b4bd
00000350: 26bf b33d ab62 ec3d d5ab 09bb d95c f2bd
00000360: 0661 c2bb 25a1 32ba 3aef dfbd d392 fdbb
00000370: fc2e 29bd 6824 e8bd 1710 a63d 7bb9 063d
00000380: 1430 5abd c649 e83d d3f2 cf3b 4168 e23b
00000390: c0c8 7b3c 8579 d3bd 35f3 57bd b6fd 893c
000003a0: a76f 3dbd 740e 853d 56b4 593b 87ba d83c
000003b0: 4cc2 f73d 729b 5bbd e3a8 8abc bb26 96bd
000003c0: 1030 e0bd cd8b ea3c 460f b63d 607c 2d3d
000003d0: 7845 c9bd e6ac a53d 82c7 e9bd c83d b3bd
000003e0: 9fee e83d c00b 6bbd 02cc 85bd 20da 54bd
000003f0: c2c5 75bd f647 0f3d b0ee 86bd 0726 fcbd

layers.4.bias f4 [64]
-0.079577565 -0.08528225 0.1164955 0.06559803 0.059375618 0.090549015 0.0021627916 -0.043764558
-0.10027193 0.076000124 -0.019919349 -0.021789247 0.07957402 -0.011022937 -0.013207677 0.10367713
0.060419757 -0.036646828 -0.06721806 0.08156294 0.089954235 0.028030435 -0.013510858 0.08109923
-0.09216958 0.053583425 0.04588257 -0.022872537 0.08542206 -0.06566243 -0.12336953 0.10916303
0.051189 -0.07070878 -0.106563024 0.082255095 -0.062272236 -0.028999424 -0.01994282 -0.08637289
-0.00036905607 -0.052466504 0.058518834 0.009078512 0.05985508 0.03545998 -0.07343638 0.032954995
-0.12434105 0.057891566 -0.08369078 0.101398066 -0.08956274 -0.07720693 -0.07439029 0.041418694
-0.10684917 0.02725874 -0.10718548 -0.065449476 -0.014901686 -0.032596305 -0.06439468 0.07231348
00000000: 90f9 a2bd 76a8 aebd 3195 ee3d 4358 863d
00000010: d933 733d c371 b93d 9fbd 0d3b 7742 33bd
00000020: 5f5b cdbd f4a5 9b3d e72d a3bc 5d7f b2bc
00000030: b4f7 a23d 8c99 34bc 0365 58bc ad54 d43d
00000040: b57a 773d fc1a 16bd 9fa9 89bd 780a a73d
00000050: ed39 b83d 15a0 e53c a55c 5dbc 5a17 a63d
00000060: 68c3 bcbd 4b7a 5b3d 5def 3b3d 305f bbbc
00000070: c3f1 ae3d 067a 86bd 2aa9 fcbd de90 df3d
00000080: 8fab 513d c4cf 90bd b73d dabd 5c75 a83d
00000090: 2c11 7fbd 3390 edbc 205f a3bc 45e4 b0bd
000000a0: de7d c1b9 1ee7 56bd 72b1 6f3d 0abe 143c
000000b0: 9a2a 753d 7c3e 113d d065 96bd d1fb 063d
000000c0: 85a6 febd b51f 6d3d 1266 abbd caa9 cf3d
000000d0: ab6c b7bd ab1e 9ebd f059 98bd a6a6 293d
000000e0: bdd3 dabd b94d df3c 1084 dbbd 600a 86bd
000000f0: 3426 74bc b483 05bd 5ce1 83bd 1719 943d

layers.6.weight f4 [1, 64]
-0.027928287 0.10662338 -0.032661688 0.003746317 0.078653626 0.08046391 -0.09458371 0.07227854
-0.061276987 0.10636823 -0.1019896 0.026625095 -0.11390847 0.05419514 -0.002074948 0.026417866
0.06517359 -0.049502864 -0.038186032 -0.09822327 0.05782208 -0.08789879 0.05938359 0.07787807
0.011872539 -0.06570572 0.0051380345 0.076510325 -0.008850606 0.00015545009 -0.08340742 0.10982188
-0.066460796 0.10009928 0.076783694 -0.14037925 0.06117928 -0.03998182 0.0983262 0.027673779
-0.10938578 -0.06435684 -0.014841167 -0.12879258 0.022617329 -0.12178549 -0.109047644 0.021807488
0.093484156 -0.082381666 -0.036388464 -0.0056572678 -0.122145474 0.031552337 0.10076054 -0.0889977
0.0008206595 -0.07583022 -0.06029696 -0.084081456 -0.017821046 0.058462966 -0.076263174 0.00084419915
00000000: ddc9 e4bc 5c5d da3d 43c8 05bd c584 753b
00000010: 2715 a13d 43ca a43d 1bb5 c1bd c506 943d
00000020: 94fd 7abd 96d7 d93d ecdf d0bd df1c da3c
00000030: d848 e9bd b9fb 5d3d dafb 07bb 486a d83c
00000040: bb79 853d 84c3 4abd f568 1cbd 4829 c9bd
00000050: d8d6 6c3d 4804 b4bd 353c 733d 8a7e 9f3d
00000060: 0a85 423c b890 86bd f55c a83b 72b1 9c3d
00000070: 2202 11bc 5100 2339 82d1 aabd 4bea e03d
00000080: 991c 88bd da00 cd3d c540 9d3d 94bf 0fbe
00000090: 2097 7a3d fac3 23bd 3f5f c93d 1fb4 e23c
000000a0: a705 e0bd 85cd 83bd 5e28 73bc 34e2 03be
000000b0: fa47 b93c ac6a f9bd 5f54 dfbd 9ea5 b23c
000000c0: 9f74 bf3d b8b7 a8bd 120c 15bd 9a60 b9bb
000000d0: 6827 fabd 063d 013d 8b5b ce3d 6d44 b6bd
000000e0: 8721 573a e04c 9bbd f2f9 76bd e632 acbd
000000f0: 71fd 91bc dd76 6f3d de2f 9cbd 3f4d 5d3a
